ACAS_Xu/models/model_4.pth (torch, 57723 bytes, 14 tensors)

MatMul_H0.weight f4 [50, 5]
-0.7766796 -0.17972109 0.086569965 -0.141675 0.045947377 -0.49405086 0.050844062 0.024173314
-0.42103404 0.4720128 -1.536884 0.06883923 -0.020390647 -0.050744742 0.05750824 0.30981997
1.6851963 -0.7072994 0.17568949 -0.12909633 -1.030274 0.01802593 -0.72636896 -0.008794443
0.09421841 -0.013866581 -0.40340963 -0.7987498 -0.24414392 0.12696211 -0.011178291 0.0070131794
0.069437355 0.041850146 0.59161144 -0.08436937 1.3493497 -0.36492166 -0.16615577 0.032312687
0.0021017944 0.2541167 -0.178731 0.8496296 0.44671434 -1.73029 0.018564906 0.009820467
-0.019350836 0.03134541 -0.43654165 -0.09689633 0.083980024 0.3929696 -0.29733458 -1.1139811
-0.13896309 0.18866497 -0.07064349 0.05919904 -0.8682459 -0.02308416 -0.1360159 -0.34822044
0.22651173 -0.27802974 -1.1645242 1.0709502 -0.053059354 -0.32865828 -0.4456901 0.01565765
0.005863303 -0.94876754 -0.3697887 -0.00619271 -0.00701342 0.0011756 4.74166e-05 0.00610817
-0.0067877257 0.1413 -0.26073793 -0.632887 -1.1043391 -0.06970745 1.0875992 0.9340726
0.50318676 -0.32327157 0.018829823 -0.026462037 -1.8870716 0.0042014136 -0.05631706 -1.502221
0.017119054 0.017585423 -0.0012726181 -0.11274186 -0.03912512 -0.08155932 0.19514848 0.17530859
-1.148092 -0.060930587 -1.5662833 1.7949493 -0.028995262 0.21944825 -0.0924799 0.029559
0.00847907 -0.0501642 -0.0650335 0.14077404 0.04126974 1.2835385 -0.0020082106 -0.074683815
-0.04122373 -0.09588613 0.06315354 -0.5381648 -0.90490085 -0.42775148 0.33018333 -0.18777521
-0.013231312 0.058451626 0.0112229 -0.00689459 -0.0170966 0.0048215 0.00339726 -0.034510653
-0.082269765 0.13270697 -1.0155791 -0.86647975 -0.7784995 -0.0061889132 0.034503914 -0.68590987
-0.48324108 -0.032008346 2.1530156 0.0012029768 0.05934014 -0.086856455 0.0154924 0.0355665
0.0225414 -0.195811 -1.63117 -0.015730936 0.18590274 -0.18707435 -1.6214261 -0.31410313
0.0074069956 -0.082745895 0.16428675 -0.97003096 -1.4269948 -0.015071989 -0.09081059 0.14692177
-0.6575986 -0.12957603 -1.4561807 0.008410908 0.15886824 -0.21768151 -0.024597498 -0.31366923
1.2138121 -1.267753 0.12038043 -0.37444457 0.029961709 0.9515363 0.7780997 -0.25695175
0.25641543 -0.0471769 -0.00968773 -0.631069 0.158391 -0.695004 -1.0546545 0.0014880992
-0.03231932 -0.4797925 -0.04896723 0.037277307 0.1441402 -0.19762589 -0.6487261 0.48924896
0.052851062 -0.7022253 -0.9784612 0.017225517 -0.033625763 -0.026709272 -0.605947 -0.77414256
0.47646305 -0.20478562 -1.0708543 0.072232656 0.048290335 -0.27966386 -0.31391525 0.112310305
1.028857 -1.1759727 -0.25457886 0.74708456 -1.6838903 0.030015362 0.023698099 0.035444412
0.046968132 0.02668336 0.07539466 -0.0643009 -1.1376836 0.7272378 -0.03688487 -0.11379183
-0.009486501 0.77125365 -1.4946288 0.34777397 -2.0154433 0.38293704 -0.018795788 -0.090242885
0.01672645 0.90000904 -1.3772985 -0.104522325 -0.2729355 0.014745849 0.101206586 0.81302166
-0.36368343 -0.2575669
00000000: 79d4 46bf ce08 38be 984b b13d 4013 11be
00000010: 5133 3c3d 3cf4 fcbe dd41 503d 1d07 c63c
00000020: c691 d7be a9ab f13e 9db8 c4bf 95fb 8c3d
00000030: 490a a7bc b8d9 4fbd c38d 6b3d b9a0 9e3e
00000040: 83b4 d73f 9311 35bf f2e7 333e d431 04be
00000050: 05e0 83bf 1dab 933c 51f3 39bf 9116 10bc
00000060: 95f5 c03d a830 63bc b58b cebe de7a 4cbf
00000070: dd00 7abe 5b02 023e 2725 37bc d0ce e53b
00000080: 2c35 8e3d 0f6b 2b3d d973 173f d9c9 acbd
00000090: 7eb7 ac3f 03d7 babe bd24 2abe 4f5a 043d
000000a0: 42be 093b 961b 823e 4205 37be 5381 593f
000000b0: beb7 e43e 257a ddbf 6e15 983c 06e6 203c
000000c0: a585 9ebc 0b64 003d 6382 dfbe 9571 c6bd
000000d0: b8fd ab3d 5033 c93e 3d3c 98be ef96 8ebf
000000e0: 574c 0ebe 6431 413e 89ad 90bd b17a 723d
000000f0: 5d45 5ebf fe1a bdbc c147 0bbe f349 b2be
00000100: b1f2 673e ea59 8ebe 210f 95bf e514 893f
00000110: c454 59bd e645 a8be 7e31 e4be 7944 803c
00000120: f320 c03b 6ee2 72bf f254 bdbe 37ec cabb
00000130: d5d0 e5bb 9716 9a3a 30e1 4638 0b27 c83b
00000140: 926b debb f2b0 103e 717f 85be e204 22bf
00000150: fc5a 8dbf c8c2 8ebd 7336 8b3f 621f 6f3f
00000160: d9d0 003f da83 a5be 0041 9a3c eac6 d8bc
00000170: 908b f1bf 03ac 893b b8ac 66bd c748 c0bf
00000180: 423d 8c3c 4e0f 903c facd a6ba 34e5 e6bd
00000190: a941 20bd 9308 a7bd 01d5 473e 1884 333e
000001a0: aef4 92bf 5a92 79bd f97b c8bf e6c0 e53f
000001b0: 7987 edbc 0bb7 603e 1a66 bdbd b725 f23c
000001c0: cceb 0a3c fa78 4dbd 4930 85bd 1227 103e
000001d0: 750a 293d fd4a a43f 2f9c 03bb d4f3 98bd
000001e0: 37da 28bd f35f c4bd a556 813d 2bc5 09bf
000001f0: 95a7 67bf 3e02 dbbe ca0d a93e 2548 40be
00000200: 25c8 58bc f96a 6f3d 41e0 373c 03ec e1bb
00000210: 2b0e 8cbc acfd 9d3b 91a4 5e3b 0b5b 0dbd
00000220: 0d7d a8bd 56e4 073e 7ffe 81bf 9ed1 5dbf
00000230: be4b 47bf 5ecc cabb fa53 0d3d ca97 2fbf
00000240: 606b f7be 2f1b 03bd 02cb 0940 34ad 9d3a
00000250: a60e 733d cce1 b1bd d6d3 7d3c 2eae 113d
00000260: bea8 b83c ae82 48be 2eca d0bf 2ade 80bc
00000270: 4a5d 3e3e 6b90 3fbe e48a cfbf 20d2 a0be
00000280: 62b6 f23b ae76 a9bd c93a 283e f353 78bf
00000290: c4a7 b6bf 81f0 76bc e7fa b9bd a972 163e
000002a0: 6258 28bf 94af 04be 2164 babf e8cd 093c
000002b0: 5bae 223e e7e7 5ebe b180 c9bc 4199 a0be
000002c0: 325e 9b3f bb45 a2bf 048a f63d 33b7 bfbe
000002d0: 4272 f53c e297 733f 8b31 473f 2e8f 83be
000002e0: e248 833e 913c 41bd 49b9 1ebc bd8d 21bf
000002f0: 4031 223e c8eb 31bf ebfe 86bf 530c c33a
00000300: 4361 04bd 5da7 f5be dd91 48bd 17b0 183d
00000310: 7d99 133e 715e 4abe ea12 26bf d77e fa3e
00000320: 5b7a 583d 0ac5 33bf 6f7c 7abf 871c 8d3c
00000330: 2bbb 09bd 67cd dabc 581f 1bbf 352e 46bf
00000340: f7f2 f33e 52b3 51be c111 89bf b7ee 933d
00000350: 16cc 453d 1a30 8fbe 80b9 a0be f202 e63d
00000360: 96b1 833f 4686 96bf 2958 82be ef40 3f3f
00000370: b889 d7bf c7e2 f53c 8422 c23c 292e 113d
00000380: a861 403d 1097 da3c 8468 9a3d 31b0 83bd
00000390: 9e9f 91bf 422c 3a3f 9714 17bd b10b e9bd
000003a0: 456d 1bbc e170 453f ff4f bfbf 6e0f b23e
000003b0: 06fd 00c0 5310 c43e a0f9 99bc 43d1 b8bd
000003c0: e805 893c fe66 663f 514b b0bf cd0f d6bd
000003d0: 34be 8bbe 9398 713c 6645 cf3d 3022 503f
000003e0: b734 babe cfdf 83be

MatMul_H0.bias f4 [50]
0.11095678 -0.107443206 -0.1625534 -0.023985896 -0.23032592 0.09327709 0.21284947 -0.4804887
-0.2049644 -0.33749405 -0.018269544 -0.07517774 -0.12745497 -0.044853233 -0.65333056 -0.0230185
-0.6580938 -0.112525605 -0.012245297 -0.37185088 0.2951747 -0.08944833 -0.106251 0.042451184
-0.5581791 0.010314316 -0.0281636 -0.058697835 -0.68307114 0.08245147 -0.732251 -0.5204489
-0.3892832 0.1505404 -0.34899116 0.1139291 0.20139666 -0.40872 -0.48004565 0.03825251
0.012252219 -0.04170437 -0.3990389 -0.20095398 -0.4339458 -0.19115232 -0.21637571 0.0049736653
-0.18521053 -0.25894922
00000000: 4f3d e33d 2f0b dcbd 6674 26be 127e c4bc
00000010: 8fda 6bbe 0f08 bf3d 36f5 593e 9d02 f6be
00000020: 30e2 51be 05cc acbe 03aa 95bc c9f6 99bd
00000030: 8e83 02be 06b8 37bd ac40 27bf 4b91 bcbc
00000040: d678 28bf d373 e6bd 80a0 48bc 3d63 bebe
00000050: 2321 973e b030 b7bd 209a d9bd 4be1 2d3d
00000060: d3e4 0ebf 60fd 283c 5ab7 e6bc 246d 70bd
00000070: c0dd 2ebf 51dc a83d cd74 3bbf 243c 05bf
00000080: 2150 c7be 4327 1a3e f8ae b2be a953 e93d
00000090: ed3a 4e3e bf43 d1be 8bc8 f5be aaae 1c3d
000000a0: 88bd 483c 34d2 2abd d44e ccbe e1c6 4dbe
000000b0: 252e debe 6fbd 43be 9891 5dbe 21fa a23b
000000c0: d4a7 3dbe fe94 84be

MatMul_H1.weight f4 [50, 50]
0.43244296 -1.089048 0.062942006 0.14188935 0.8187747 1.0562987 0.13052605 0.11088433
0.6931495 -0.104441024 1.0124563 -0.024834441 0.16376564 0.24694382 -2.6233923 -0.012124
0.26473743 -0.21848334 -0.0873987 -0.37005448 0.97770447 0.17837764 0.0502466 0.021144014
0.5123595 0.6912608 -0.0116323 0.16375571 -1.5074211 0.226888 0.437119 0.6449544
-0.29651654 -1.888321 0.054534856 -0.071921155 -0.009166884 1.54534 -0.9768301 0.061357185
-0.9410923 -0.61696047 0.44048962 1.1656115 -0.36744943 -0.50290424 -0.20775132 -0.31647468
-0.6474754 -0.182922 -0.0571651 -0.00240045 0.0317668 0.0149132 0.00274083 0.0293309
-0.0559911 -0.0372058 0.000593005 -0.0200322 -0.00552438 -0.0373491 -0.0228229 -0.0068469
0.00575654 -0.0160478 -0.00335368 0.00735816 -0.0399714 -0.0370127 0.00725845 -0.0114271
0.0113318 -0.0316478 0.0481263 0.0043478 -0.0199183 -0.0218775 0.00940047 0.0146829
0.0217425 -0.0400343 0.0298655 0.0207967 0.0277248 -0.0177117 -0.0226978 0.0385062
-0.000399054 -0.0493169 0.0336159 0.0238694 -0.0200781 -0.0622713 0.036566 -0.0364607
0.00839204 -0.0318456 -0.0163064 0.0313097 0.33814022 -0.23628676 0.004794843 0.60330564
-0.16451776 0.5356231 -1.0307369 -0.5916496 -8.34879 -0.18660006 0.6366589 -0.2935062
0.17766044 0.22624056 0.38865045 -0.0197319 -0.3642799 0.54367507 -0.65597624 -0.4770869
-1.7308962 -0.20796263 0.0725337 0.4034839 2.4444468 0.17137934 -0.00648876 1.2105229
-1.4707779 -0.4204345 -0.148992 -1.2166955 0.17343454 1.6920829 -0.04401879 0.72501945
0.26024175 1.76788 0.20627338 0.6522066 0.27985522 1.5604681 -0.09847696 0.654094
0.39220965 1.0501734 -0.268052 0.071446694 -0.43575245 0.105826475 -0.1179545 -2.240118
-0.019497363 0.39446092 0.054014623 -0.5741384 -1.6193285 0.65116435 0.1705285 -0.057624966
0.6224415 -0.15368634 0.23666939 -0.6856201 -1.4766946 -0.0067245 0.09280355 0.7285388
0.234634 -0.42283672 -0.07786378 0.5524139 -0.00752516 0.4301575 -0.13977319 -0.3425276
-0.0463129 0.26834434 -0.09284774 0.33540186 1.13107 0.07979876 1.1062026 -1.6466372
-0.108996846 0.38565335 -0.92889005 0.971516 -0.6278188 0.40991783 -1.00658 0.01898071
0.12281442 -1.5751482 0.05786359 -4.1596274 -0.28349394 -0.555667 0.37099934 0.86651105
0.0257178 -0.00251073 0.0131237 -0.0588368 -0.0256383 0.0113737 -0.0194607 -0.0395232
-0.0136478 0.0120228 0.00733028 -0.0354091 -0.0286693 -0.0225605 -0.0251281 -0.0193469
0.0179801 -0.0557655 -0.0308471 -0.0295185 -0.00561479 -0.0151892 0.03886 0.0245929
-0.00393572 -0.0197384 -0.0353719 -0.0539453 -0.0393122 0.0404298 -0.0104025 0.0136048
0.0106692 -0.0374466 0.0140103 0.0286358 0.00934426 0.00474055 -0.0355933 0.0271594
-0.0562143 0.0100243 -0.00866443 -0.0538597 -0.0459932 -0.0280462 -0.0156359 -0.0360468
-0.0200711 -0.0529031 0.21096188 0.15137748 0.06651419 0.5550221 -1.1409936 2.0380893
00000000: 2a69 dd3e ed65 8bbf bde7 803d 714b 113e
00000010: 389b 513f cc34 873f 9fa8 053e 5317 e33d
00000020: 3f72 313f 2de5 d5bd 2b98 813f 9971 cbbc
00000030: 2eb2 273e d7de 7c3e a9e5 27c0 bea3 46bc
00000040: aa8b 873e 19ba 5fbe 17fe b2bd c877 bdbe
00000050: d74a 7a3f a1a8 363e 61cf 4d3d 3636 ad3c
00000060: fe29 033f 78f6 303f 6795 3ebc 94af 273e
00000070: 2df3 c0bf 5455 683e 10ce df3e bb1b 253f
00000080: 04d1 97be 81b4 f1bf f15f 5f3d 664b 93bd
00000090: b330 16bc b3cd c53f 8a11 7abf ac51 7b3d
000000a0: 6deb 70bf 1ff1 1dbf db87 e13e c232 953f
000000b0: 5522 bcbe 55be 00bf c3bc 54be f808 a2be
000000c0: f3c0 25bf e84f 3bbe f425 6abd de50 1dbb
000000d0: e71d 023d 7f56 743c 7f9f 333b 5b47 f03c
000000e0: ec56 65bd 1c65 18bd e473 1b3a 911a a4bc
000000f0: dc05 b5bb 5ffb 18bd 17f7 babc f65b e0bb
00000100: 5ca1 bc3b ad76 83bc 6ac9 5bbb b81c f13b
00000110: 0db9 23bd a19a 17bd 4bd8 ed3b bb38 3bbc
00000120: 04a9 393c 20a1 01bd 1520 453d fd77 8e3b
00000130: b42b a3bc 7138 b3bc 6e04 1a3c 8c90 703c
00000140: 541d b23c 02fb 23bd 7ea8 f43c d75d aa3c
00000150: 1f1f e33c 2118 91bc bdf0 b9bc adb8 1d3d
00000160: 1f38 d1b9 8500 4abd d3b0 093d c389 c33c
00000170: d47a a4bc 3110 7fbd 3bc6 153d d157 15bd
00000180: c47e 093c 8870 02bd 0095 85bc 9a3e 003d
00000190: b720 ad3e 28f5 71be 0f1e 9d3b 3d72 1a3f
000001a0: 5877 28be 981e 093f 30ef 83bf 5976 17bf
000001b0: a594 05c1 1614 3fbe 14fc 223f 7246 96be
000001c0: 9eec 353e 9bab 673e 31fd c63e cba4 a1bc
000001d0: e582 babe 4a2e 0b3f 0fee 27bf bc44 f4be
000001e0: 028e ddbf 28f4 54be 8c8c 943d 7195 ce3e
000001f0: d171 1c40 117e 2f3e aa9f d4bb 6af2 9a3f
00000200: 7342 bcbf 3143 d7be 5c91 18be aebc 9bbf
00000210: d398 313e 2c96 d83f 0c4d 34bd e09a 393f
00000220: 683e 853e e449 e23f 5439 533e 03f7 263f
00000230: 2f49 8f3e 6bbd c73f 4aae c9bd b472 273f
00000240: b4cf c83e 156c 863f 1d3e 89be a552 923d
00000250: f21a dfbe 8dbb d83d 2192 f1bd 185e 0fc0
00000260: efb8 9fbc c8f6 c93e 703e 5d3d bcfa 12bf
00000270: 2846 cfbf b5b2 263f 069f 2e3e 2808 6cbd
00000280: 5358 1f3f f45f 1dbe 7659 723e cd84 2fbf
00000290: 5404 bdbf 3259 dcbb ca0f be3d 8581 3a3f
000002a0: e543 703e 0e7e d8be 0c77 9fbd ff6a 0d3f
000002b0: 9e95 f6bb 9b3d dc3e b420 0fbe c75f afbe
000002c0: 98b2 3dbd 6e64 893e f526 bebd cbb9 ab3e
000002d0: e7c6 903f 886d a33d 0c98 8d3f 02c5 d2bf
000002e0: bd39 dfbd 5b74 c53e bdcb 6dbf 46b5 783f
000002f0: bcb8 20bf c0e0 d13e 9dd7 80bf 6f7d 9b3c
00000300: 2086 fb3d 759e c9bf 5f02 6d3d ab1b 85c0
00000310: 1e26 91be 3140 0ebf a0f3 bd3e abd3 5d3f
00000320: 23ae d23c 0f8b 24bb ca04 573c dbfe 70bd
00000330: 6a07 d2bc c158 3a3c 0c6c 9fbc 14e3 21bd
00000340: 069b 5fbc 47fb 443c d832 f03b 2209 11bd
00000350: e1db eabc ccd0 b8bc 72d9 cdbc 647d 9ebc
00000360: 014b 933c 5d6a 64bd 0fb3 fcbc c8d0 f1bc
00000370: 46fc b7bb 1fdc 78bc aa2b 1f3d 0d77 c93c
00000380: 36f7 80bb 6db2 a1bc 20e2 10bd bff5 5cbd
00000390: d405 21bd b899 253d 3f6f 2abc abe6 5e3c
000003a0: decd 2e3c 9b61 19bd 758b 653c a095 ea3c
000003b0: ab18 193c 9e56 9b3b 48ca 11bd 647d de3c
000003c0: f740 66bd f63c 243c 41f5 0dbc fd9b 5cbd
000003d0: 5e63 3cbd 25c1 e5bc dc16 80bc cfa5 13bd
000003e0: 266c a4bc ecb0 58bd 6406 583e b302 1b3e
000003f0: 9738 883d ee15 0e3f 140c 92bf 0e70 0240

MatMul_H1.bias f4 [50]
0.10203466 -0.0243178 -1.4133664 0.58694917 -0.017708 -0.64956295 -0.43082356 -0.5271262
-0.33866575 -0.20145173 -0.64060485 0.048996992 -0.3565544 -0.65507543 -0.6567683 -0.620969
-0.102499925 0.61262923 0.7131909 0.4703514 -0.42930382 -0.41538674 0.09249558 -0.04982756
-0.75815713 0.54546696 0.41490456 -0.93523026 -0.14152518 0.24194148 0.53425807 -0.7521335
0.65382737 0.7881146 -0.9023203 1.1787075 0.4237978 -0.30984855 0.5023746 0.12723619
-0.83686537 -0.00680284 -0.15069069 -0.0105404 -0.7905881 -0.0482317 -0.7734494 -1.0026336
0.4947115 -0.0107124
00000000: 8cf7 d03d 1f36 c7bc 31e9 b4bf 4d42 163f
00000010: 5e10 91bc c249 26bf e894 dcbe bef1 06bf
00000020: 9965 adbe 5d49 4ebe aefe 23bf 12b1 483d
00000030: 4c8e b6be 06b3 27bf f821 28bf d3f7 1ebf
00000040: 7beb d1bd 45d5 1c3f ae93 363f e6d1 f03e
00000050: b6cd dbbe 92ad d4be 536e bd3d fc17 4cbd
00000060: 9616 42bf b9a3 0b3f 5f6e d43e 406b 6fbf
00000070: faeb 10be 82bf 773e 23c5 083f d28b 40bf
00000080: 3b61 273f e1c1 493f 77fe 66bf e3df 963f
00000090: 06fc d83e 78a4 9ebe 9f9b 003f 344a 023e
000000a0: cf3c 56bf 5cea debb a94e 1abe a4b1 2cbc
000000b0: fb63 4abf 9a8e 45bd c800 46bf 4c56 80bf
000000c0: d34a fd3e 1083 2fbc

MatMul_H2.weight f4 [50, 50]
-0.39959073 0.00738521 -0.07244409 0.18081377 0.0194852 0.7576962 0.32510892 0.3216608
0.66758066 0.6640498 -0.44791782 -0.25032815 -0.016635632 0.088567555 0.10967399 0.49757016
0.071015306 0.20783025 -0.6506515 0.11529353 -0.2931928 -0.25515744 -0.15855375 -2.7876167
1.6002988 0.555032 0.31851354 0.06263552 -0.13420546 -0.08695441 0.14146855 -0.16387127
0.4480613 -0.06105095 0.0978414 0.11142608 0.050830323 -0.4171385 0.012164781 0.35558447
0.2756874 -0.0128407 -0.20525678 -0.00599907 1.0110362 0.808222 -1.5722383 0.7927731
-0.7207653 0.0099789 0.1501794 -0.0404926 0.26461455 -0.0850418 0.0461438 0.86940885
-1.5110824 0.19944151 -0.05638001 -1.240454 -0.406236 -0.16372707 -0.0791434 -1.1265701
-0.33084887 -0.14096549 0.54020935 -0.079487406 -0.2787518 0.2379869 0.19519578 0.16844088
0.21706407 0.966202 -0.11216185 -0.20285852 0.20810981 -0.05667479 -0.496222 0.015232404
0.2372589 -0.00090913696 0.6107691 -0.106533535 -0.190291 0.42536992 -0.9459709 0.46461606
-0.36770636 0.5742606 -0.12732708 0.0293228 -0.02000139 -0.00774894 0.0752643 0.701672
0.28498903 0.3741768 0.51444924 -0.0280883 0.08832665 -0.0322452 -0.06338134 0.249119
0.0171067 0.12391746 2.732674 0.03180623 0.51833457 1.3998432 0.39166 -0.5014625
-0.50643295 -0.3776914 0.23915257 -0.26051018 -0.10855568 -0.6223497 -0.5438187 0.532776
0.153969 0.1754719 -0.47360954 -0.910202 1.5605536 0.1894574 0.13823584 0.013473912
0.0200152 -0.256342 -0.30150118 0.024848288 -0.34128898 0.39068836 0.021283241 -0.042439792
0.434092 -0.07738309 -0.613199 -0.4062552 0.28373128 0.0149621 -0.2231422 0.00328751
1.3129091 0.417986 0.12329617 0.71302366 -0.07611526 -0.0168128 0.2536085 -0.00170572
0.09073329 0.12238313 -0.013337 0.8692058 -2.3616092 -0.18497832 -0.18503703 1.7050172
-1.96496 0.44756588 1.25255 0.3953556 0.7328409 -0.5195468 0.069969006 0.29361108
-0.13571517 0.35688388 0.38515702 0.56539154 0.5885127 -1.1032486 0.03772403 -0.101181574
-0.71905357 -0.74872524 -1.7892128 0.98063487 -0.21770364 -0.6351415 -0.8310272 0.20957196
-0.1736735 -0.48170498 -0.8185151 0.14164138 -0.9311642 0.46151313 0.06476703 0.0288046
-0.20706043 0.0280357 -0.14049844 0.711982 -0.071156375 0.24918674 -0.33736333 -0.0487757
0.5587874 -0.0248013 -2.1680405 -0.000872821 0.0070262 0.0404883 0.27033052 -0.33594385
-0.9516825 -1.2072976 -1.1640124 -0.13371909 0.1677677 -0.73293257 0.28048915 0.09363807
-1.1061324 0.60497385 0.35828564 -0.3655777 0.133688 0.6942023 -0.06070581 -5.501764
0.25788242 -0.051400192 -1.131125 -0.09617438 0.684739 1.5459355 -1.0151725 -0.43067405
1.1649884 0.6656602 0.47322723 -0.44158515 0.47295934 -0.92912406 1.0922097 -4.3378143
-0.7215286 0.0405433 1.8646741 0.0385226 -0.61243236 -0.282414 -0.5240942 -0.681431
0.35811016 -0.00612905 0.09467422 0.0410322 0.122463934 0.26718563 0.00764678 0.46551785
00000000: 2897 ccbe a2ff f13b 915d 94bd 3f27 393e
00000010: 6d9f 9f3c 61f8 413f ad74 a63e b9b0 a43e
00000020: 91e6 2a3f 2bff 293f 7c55 e5be 032b 80be
00000030: 7347 88bc e862 b53d c29c e03d 84c1 fe3e
00000040: 7970 913d 74d1 543e 1991 26bf 041f ec3d
00000050: 5e1d 96be ffa3 82be ea5b 22be 5068 32c0
00000060: 97d6 cc3f 9416 0e3f 3514 a33e 0d47 803d
00000070: 286d 09be 2715 b2bd 22dd 103e dfcd 27be
00000080: 4a68 e53e 9010 7abd 1261 c83d 5b33 e43d
00000090: 7533 503d 2d93 d5be ca4e 473c 2b0f b63e
000000a0: e626 8d3e cd61 52bc d52e 52be d993 c4bb
000000b0: a269 813f a3e7 4e3f 1b3f c9bf 2ef3 4a3f
000000c0: 1384 38bf 8a7e 233c a1c8 193e 92db 25bd
000000d0: 8f7b 873e 652a aebd 4801 3d3d 9491 5e3f
000000e0: 266b c1bf 653a 4c3e baee 66bd 32c7 9ebf
000000f0: 2afe cfbe 12a8 27be ef15 a2bd 7333 90bf
00000100: 0665 a9be 4259 10be 294b 0a3f 4bca a2bd
00000110: 8eb8 8ebe d7b2 733e 67e1 473e c47b 2c3e
00000120: 0b46 5e3e 0459 773f 1db5 e5bd 25ba 4fbe
00000130: bd1a 553e d323 68bd cf10 febe 5591 793c
00000140: fff3 723e 2653 6eba 5d5b 1c3f 412e dabd
00000150: a5db 42be 16ca d93e 262b 72bf 28e2 ed3e
00000160: 0244 bcbe be02 133f 0862 02be 5e36 f03c
00000170: f4d9 a3bc d2ea fdbb 2b24 9a3d c7a0 333f
00000180: 15ea 913e 1a94 bf3e f2b2 033f 6f19 e6bc
00000190: 9ae4 b43d 8b13 04bd 13ce 81bd 0d19 7f3e
000001a0: 5a23 8c3c 70c8 fd3d 21e4 2e40 4047 023d
000001b0: 93b1 043f 102e b33f a987 c83e d95f 00bf
000001c0: 97a5 01bf c460 c1be 69e4 743e 9761 85be
000001d0: 7152 debd 4f52 1fbf b437 0bbf 0264 083f
000001e0: 0daa 1d3e e8ae 333e f37c f2be 0003 69bf
000001f0: 38c0 c73f 1f01 423e b28d 0d3e afc1 5c3c
00000200: ebf6 a33c 423f 83be 5d5e 9abe a38e cb3c
00000210: 6ebd aebe 4e08 c83e 315a ae3c 59d5 2dbd
00000220: 4e41 de3e 077b 9ebd 9cfa 1cbf ae00 d0be
00000230: 3a45 913e 9923 753c 647f 64be 4473 573b
00000240: 680d a83f 4302 d63e b482 fc3d b888 363f
00000250: 51e2 9bbd ffba 89bc f9d8 813e 7792 dfba
00000260: 60d2 b93d 02a4 fa3d 6f83 5abc 4584 5e3f
00000270: 9b24 17c0 f56a 3dbe 597a 3dbe 013e da3f
00000280: cf83 fbbf 5b27 e53e 8f53 a03f 0d6c ca3e
00000290: 769b 3b3f 0501 05bf e94b 8f3d 3154 963e
000002a0: ebf8 0abe 7cb9 b63e 4d33 c53e 80bd 103f
000002b0: c5a8 163f 4037 8dbf 8384 1a3d 4938 cfbd
000002c0: e513 38bf 75ac 3fbf ed04 e5bf e30a 7b3f
000002d0: b4ed 5ebe a298 22bf 33be 54bf 089a 563e
000002e0: 77d7 31be 09a2 f6be 358a 51bf 700a 113e
000002f0: c760 6ebf 734b ec3e 94a4 843d a0f7 eb3c
00000300: a607 54be 20ab e53c d3de 0fbe 7444 363f
00000310: 6fba 91bd cf2a 7f3e e3ba acbe 07c9 47bd
00000320: b10c 0f3f 192c cbbc 2dc1 0ac0 07ce 64ba
00000330: 0a3c e63b 0fd7 253d c368 8a3e d500 acbe
00000340: 77a1 73bf ba88 9abf 5cfe 94bf a8ed 08be
00000350: 4ccb 2b3e 78a1 3bbf 469c 8f3e 51c5 bf3d
00000360: bf95 8dbf 91df 1a3f 3771 b73e 002d bbbe
00000370: 82e5 083e 3eb7 313f a8a6 78bd 730e b0c0
00000380: 2a09 843e 0289 52bd b4c8 90bf 13f7 c4bd
00000390: 0e4b 2f3f 37e1 c53f 2cf1 81bf 4f81 dcbe
000003a0: 571e 953f b568 2a3f d74a f23e 7317 e2be
000003b0: ba27 f23e 13db 6dbf 87cd 8b3f 60cf 8ac0
000003c0: 19b6 38bf bb10 263d a4ad ee3f e0c9 1d3d
000003d0: 5ec8 1cbf 9198 90be 0a2b 06bf 4372 2ebf
000003e0: 375a b73e 33d6 c8bb 8fe4 c13d 6111 283d
000003f0: 5fce fa3d 8ecc 883e d791 fa3b 5b58 ee3e

MatMul_H2.bias f4 [50]
-1.1767234 -0.34277505 -1.1765862 0.37819037 -1.0368317 -0.13263331 -0.32879502 -1.0031222
0.23890407 -0.62899613 -1.1039786 1.0623224 -0.1152628 0.1446877 -0.0148365 0.14321472
-1.0588723 -0.0130626 -0.59001106 -0.49890158 -0.3891928 -0.0127361 -1.077126 -0.17639029
0.9361356 -0.5196763 -0.6317021 0.6967826 -0.25873527 1.4853115 0.09414757 -0.41073906
-0.47046152 -1.3402905 0.39043847 -0.4073502 0.39039287 -1.0564764 -1.2410494 0.9856486
-0.37253952 -0.3388808 -0.39640725 -1.471316 0.8078541 -0.48806742 0.52453333 2.231983
1.2034652 0.3057303
00000000: df9e 96bf 3680 afbe 609a 96bf 2ba2 c13e
00000010: e7b6 84bf 07d1 07be d257 a8be 4f66 80bf
00000020: 45a3 743e e405 21bf 2c4f 8dbf 2efa 873f
00000030: e70e ecbd 0329 143e cb14 73bc e1a6 123e
00000040: 2189 87bf 8404 56bc f70a 17bf 0770 ffbe
00000050: 4744 c7be 13ab 50bc 44df 89bf a89f 34be
00000060: 95a6 6f3f 8209 05bf 3bb7 21bf 5860 323f
00000070: f378 84be b01e be3f 71d0 c03d 644c d2be
00000080: 55e0 f0be a48e abbf 8de7 c73e 3590 d0be
00000090: 93e1 c73e 9e3a 87bf b5da 9ebf 7753 7c3f
000000a0: 80bd bebe c981 adbe e4f5 cabe 1554 bcbf
000000b0: 87cf 4e3f f9e3 f9be d147 063f cfd8 0e40
000000c0: 260b 9a3f af88 9c3e

MatMul_H3.weight f4 [50, 50]
-0.090309136 -5.8045807 2.2959943 1.3159829 0.64261335 0.040740084 -1.152812 -1.3484339
-0.9318479 -0.75311357 -0.9422294 0.20942149 -1.8836429 -0.9487348 0.0109988 -1.8978606
-2.3422785 0.0368907 -2.3029506 -1.7305458 -0.586385 0.02411 -1.2352583 -0.5090204
0.044588827 0.28812006 -1.1348226 0.6254802 -0.034013025 -0.51363844 -0.746176 -1.0402869
0.49814963 -2.5485845 0.563621 1.2408385 0.6834927 -6.2072544 -0.35497972 0.38411498
-0.0034280582 -1.7916402 -1.7701294 1.24604 -2.4119277 -0.63191676 -1.4132217 1.2608211
1.4341857 0.33279023 0.6257257 -0.026973952 -0.5542939 0.084296316 -0.04898368 0.13129963
-0.09330522 0.04775168 -0.37631828 0.5980442 0.16464366 -0.42238057 0.22601628 -0.19194093
-0.02552 -0.39212957 -0.012442491 -0.0213175 -0.056247048 0.20147847 -0.17647165 0.00412052
-0.23880336 0.1647442 0.2001496 -0.2295566 0.0011836977 0.054807335 0.01840054 -0.28221762
0.31242374 -0.40473452 -0.13348903 -0.79982394 -0.22882089 0.53734076 0.015067778 -1.1474338
0.46683374 -0.15619616 -0.3641726 -0.30575925 -0.44204718 0.20817198 0.46227407 0.7570797
0.0664346 -0.28285295 0.14829464 0.2295114 0.68246317 -1.9454185 1.1997774 0.53099793
0.0009770637 -0.104502395 -0.12222462 0.22388774 -0.08750592 0.19832769 0.35786888 -0.22683774
-0.044912726 0.1181321 0.0419426 0.26748332 0.2710862 0.0348715 0.09221773 0.26931268
0.028605053 -0.0109044 -0.628269 0.27027985 -0.009040442 0.18192321 -0.06300101 -0.27021423
0.2135007 0.121548615 0.28447816 -0.28462455 0.3312989 0.46051228 0.3295825 0.37700343
-0.34733066 -0.46389896 0.05374394 -0.11665047 -0.17539452 -0.14765492 -0.24196856 0.15531453
0.45568517 -0.367543 -0.24480803 0.090012334 0.08181316 0.33007082 -2.1894221 0.9425451
0.33115 -0.38100836 0.218597 0.38049564 -3.760614 -0.7067789 -3.52668 0.027389668
-0.59673774 -0.01794416 0.19483075 -0.1889288 -0.030119 -0.61441565 0.8232363 0.01224
1.7577672 0.0645138 -0.21618024 -0.0207406 1.0678809 1.1982262 -1.9322472 0.46484023
-0.70400834 -0.5110905 -1.0210255 -1.3357385 -1.1247205 1.49126 0.3282266 0.28993016
-0.7273328 -2.2507348 -0.06680023 0.7536793 -1.0291952 -0.07093933 -0.8543508 0.8904314
0.6399876 -0.149938 0.2502428 -0.0789592 0.59232026 0.671004 -0.5458542 0.27803084
0.72735417 -0.21745974 -0.6238855 0.36843288 -0.19008605 0.461433 -1.1444968 0.20074973
-1.1405854 0.6000349 -0.50536525 -0.7868701 -2.3315237 -0.24263299 0.0239942 0.55254495
0.32706374 0.0326719 -0.44896436 -3.4240956 -0.10014218 0.0402065 -0.46699136 -0.33212852
-0.041100495 0.91813296 -0.49087813 -0.11553547 -0.10790649 0.032757767 -0.33496833 0.210801
0.16039154 0.5256008 0.6772928 0.27489448 0.35161322 0.48160425 0.23260814 -0.33366534
-0.41867253 -0.05675674 -0.44438335 -0.1063432 0.11272473 0.2762429 -0.02104028 -0.3614161
0.040810525 -0.18246663 -0.46396562 0.23498568 0.28059694 -0.34830242 -0.05131968 -0.011143799
00000000: fff3 b8bd 20bf b9c0 92f1 1240 2172 a83f
00000010: 4f82 243f 13df 263d 588f 93bf 7b99 acbf
00000020: 958d 6ebf 0dcc 40bf f235 71bf 9672 563e
00000030: 361b f1bf 49e0 72bf 5034 343c 19ed f2bf
00000040: e4e7 15c0 b41a 173d 8b63 13c0 8682 ddbf
00000050: 541d 16bf 5682 c53c f21c 9ebf 294f 02bf
00000060: c6a2 363d 7984 933e de41 91bf 781f 203f
00000070: 3e51 0bbd cf7d 03bf 6405 3fbf 1f28 85bf
00000080: 780d ff3e 021c 23c0 7749 103f ccd3 9e3f
00000090: 61f9 2e3f d4a1 c6c0 e7bf b5be b8aa c43e
000000a0: 46a9 60bb 7754 e5bf 9a93 e2bf 3d7e 9f3f
000000b0: 065d 1ac0 4cc5 21bf 73e4 b4bf 9662 a13f
000000c0: 6693 b73f 7b63 aa3e 8f2f 203f 7af8 dcbc
000000d0: 34e6 0dbf 8ca3 ac3d 1ca3 48bd 6973 063e
000000e0: cf16 bfbd 4497 433d caac c0be 6d19 193f
000000f0: 5998 283e 4442 d8be d070 673e 2a8c 44be
00000100: 520f d1bc 35c5 c8be 97db 4bbc 0aa2 aebc
00000110: 4e63 66bd 5f50 4e3e fcb4 34be 6d05 873b
00000120: de88 74be b4b2 283e 04f4 4c3e e310 6bbe
00000130: 4e26 9b3a a87d 603d bbbc 963c d47e 90be
00000140: 01f6 9f3e 5d39 cfbe 59b1 08be 43c1 4cbf
00000150: 0650 6abe 2a8f 093f d7de 763c 1cdf 92bf
00000160: d504 ef3e e3f1 1fbe d574 babe 7a8c 9cbe
00000170: 0254 e2be 092b 553e 30af ec3e facf 413f
00000180: dd0e 883d 1ad2 90be 8dda 173e 0905 6b3e
00000190: e8b5 2e3f 7903 f9bf 4e92 993f 7bef 073f
000001a0: d110 803a 5a05 d6bd e750 fabd d442 653e
000001b0: 4e36 b3bd 6a16 4b3e 973a b73e 2748 68be
000001c0: 68f6 37bd 3eef f13d 01cc 2b3d 93f3 883e
000001d0: cfcb 8a3e 6bd5 0e3d a6dc bc3d 5ae3 893e
000001e0: 2555 ea3c 5ea8 32bc 3dd6 20bf 1f62 8a3e
000001f0: 5d1e 14bc 144a 3a3e ac06 81bd 8559 8abe
00000200: ed9f 5a3e 7bee f83d 1fa7 913e 4fba 91be
00000210: 02a0 a93e 44c8 eb3e 0abf a83e 9806 c13e
00000220: 53d5 b1be 2a84 edbe 9b22 5c3d 71e6 eebd
00000230: 9f9a 33be da32 17be 9bc6 77be c60a 1f3e
00000240: 914f e93e 992e bcbe f5ae 7abe 6358 b83d
00000250: a88d a73d 0bff a83e 7e1f 0cc0 a34a 713f
00000260: 7e8c a93e 8713 c3be e4d7 5f3e 53d0 c23e
00000270: e6ad 70c0 76ef 34bf 20b5 61c0 4c60 e03c
00000280: cec3 18bf a2ff 92bc b681 473e 8d76 41be
00000290: 1fbc f6bc 584a 1dbf 9dbf 523f 488a 483c
000002a0: 84fe e03f d01f 843d 5a5e 5dbe 31e8 a9bc
000002b0: 52b0 883f 7a5f 993f e053 f7bf 8aff ed3e
000002c0: e439 34bf d4d6 02bf f7b0 82bf 7bf9 aabf
000002d0: d7f6 8fbf 9ce1 be3f 510d a83e ba71 943e
000002e0: 7b32 3abf 0a0c 10c0 8fce 88bd 20f1 403f
000002f0: abbc 83bf a448 91bd bcb6 5abf 50f3 633f
00000300: 3ad6 233f 5989 19be d31f 803e 5cb5 a1bd
00000310: 4da2 173f ebc6 2b3f 1abd 0bbf 0f5a 8e3e
00000320: e233 3a3f c4ad 5ebe f6b6 1fbf 3ca3 bc3e
00000330: eba5 42be f240 ec3e df7e 92bf 5691 4d3e
00000340: b4fe 91bf e39b 193f 9e5f 01bf 5270 49bf
00000350: af37 15c0 c874 78be 7c8f c43c 9673 0d3f
00000360: e674 a73e f8d2 053d a8de e5be 6224 5bc0
00000370: 5817 cdbd 92af 243d 7e19 efbe c00c aabe
00000380: fe58 28bd c30a 6b3f 6154 fbbe dc9d ecbd
00000390: 14fe dcbd 022d 063d f880 abbe 38dc 573e
000003a0: ae3d 243e c68d 063f 1063 2d3f f8be 8c3e
000003b0: a606 b43e d594 f63e d430 6e3e 2fd6 aabe
000003c0: 3f5c d6be c179 68bd 3786 e3be 77ca d9bd
000003d0: 39dc e63d b66f 8d3e aa5c acbc 880b b9be
000003e0: f028 273d 88d8 3abe e78c edbe 16a0 703e
000003f0: 67aa 8f3e b254 b2be 9634 52bd 7b94 36bc

MatMul_H3.bias f4 [50]
-0.4808005 0.7878398 -1.2003472 0.5796704 0.38766038 0.6867712 0.72376347 1.0125792
-0.6714779 -0.6038602 -0.13099904 0.3423733 0.53591925 0.27587402 0.6466398 0.32930169
-0.12295584 0.7258934 0.12378759 0.52405936 0.012183367 -1.7051445 0.43860182 -1.5180979
-0.8691586 -0.69988424 -1.1316061 0.42918202 1.3845117 0.4097743 -0.45892555 0.15587276
-0.3287079 -0.14308812 0.1426124 0.9484253 0.024017593 0.5505632 -0.021534652 -0.3829029
-0.25578833 0.84329844 -0.425565 0.09591965 0.20234784 -0.051288065 0.64692485 -2.5008636
0.09436163 -0.6389597
00000000: 7c2b f6be deaf 493f faa4 99bf 4865 143f
00000010: 6c7b c63e 3dd0 2f3f 9048 393f 329c 813f
00000020: fae5 2bbf 9596 1abf 9d24 06be 8e4b af3e
00000030: 0132 093f 5c3f 8d3e 308a 253f 3b9a a83e
00000040: 45d0 fbbd 26d4 393f 5984 fd3d c128 063f
00000050: bf9c 473c 2d42 dabf 6b90 e03e 0851 c2bf
00000060: 2e81 5ebf 9d2b 33bf 78d8 90bf bfbd db3e
00000070: ae37 b13f f0cd d13e 4af8 eabe 1c9d 1f3e
00000080: 674c a8be b185 12be fc08 123e 00cc 723f
00000090: 8bc0 c43c b6f1 0c3f 7069 b0bc d90b c4be
000000a0: b0f6 82be 68e2 573f a8e3 d9be 8571 c43d
000000b0: 4634 4f3e 6f13 52bd de9c 253f 260e 20c0
000000c0: ac40 c13d dd92 23bf

MatMul_H4.weight f4 [50, 50]
0.16583951 -0.47707087 0.24948606 0.26969105 -1.6187084 -0.06279308 -0.058313105 0.0028674356
-1.8128948 -0.46997982 0.05802828 -0.67639256 0.048679195 -0.9441338 -0.43596125 -0.64984465
0.55291593 -0.002425298 0.7821278 0.68164647 0.21148548 -0.083037294 -0.017824642 -1.3004
0.14626019 -1.5003902 0.41512242 -0.1860399 -0.17899914 -2.0106573 -0.5367662 -0.2252851
0.18128127 0.18150657 -0.581186 -0.0057982053 -1.7065533 0.0818882 0.20083 -0.23421519
-3.4304197 -0.37065002 0.1353081 -1.1390737 0.24125068 -0.19252469 -0.12765285 -0.446329
0.43143395 0.59646106 0.12460088 0.604266 -1.0876652 -0.07708027 -0.45355478 -0.318882
0.0029021215 0.4872916 0.060006615 0.1931466 0.4817131 -0.32019076 -0.013399576 0.030296888
0.387194 -0.08393385 0.3513156 0.31707644 -0.042402565 0.31606564 -0.08161409 0.27033672
-0.08118518 -0.04022543 0.24630065 -0.14994518 -0.3768891 -0.995297 0.034902412 -0.20318213
-0.18324459 -0.78345275 -0.12053733 -0.8899633 -0.157698 -0.2655797 -0.27357095 -0.44447353
0.15884314 -0.54658365 0.16225657 0.22560924 -0.17103043 -0.28254706 -0.025805715 -0.040945575
0.084762596 0.77922994 -0.3227098 -0.016274896 -0.0340888 0.0290349 0.00701951 -0.0432847
0.00605251 -0.0110239 -0.0326927 0.0134742 -0.00132324 -0.0431392 0.0094873 0.00656829
0.0268231 -0.0355952 -0.00493336 -0.0387315 0.0123021 -0.0184172 -0.0156393 -0.0540969
0.00469337 0.00553994 0.0111795 -0.0352455 -0.0144568 0.0227119 -0.031533 0.03328
0.00657584 -0.0539361 0.000272809 0.0237776 0.00855793 0.0262615 0.0311601 0.0291601
-0.00443531 0.0111009 -0.00622161 -0.00476824 -0.0293328 -0.0251456 -0.0673128 -0.0165349
0.0079839 -0.0375444 -0.0160463 0.0184564 -0.044128 -0.0338363 -0.1731678 0.8031756
-0.48840192 -0.30742693 -0.29227757 -0.1751673 -0.07343886 0.046068154 -0.06824238 0.3519318
0.4726116 0.2300992 0.007008556 -0.16675399 0.15910776 0.03361178 -0.060187683 0.76331025
-0.14002022 0.19416365 0.3339059 -0.018779287 0.18592799 -0.050828096 -0.052304465 0.8142366
-0.50629616 -0.464135 0.26119936 -0.2931793 -0.14966452 0.36210856 0.33942747 0.7400012
-0.528171 0.27219456 0.04048526 -0.19721566 0.068806075 0.28939298 -0.2765583 -0.063689955
-0.69255716 -0.2821957 0.064599276 -0.18584578 1.2458899 -0.5515124 -0.073599964 -0.4940432
0.00818026 0.0365465 -0.0219156 -0.0523964 0.0292732 -0.05225 -0.0275411 -0.0394983
0.0097325 0.000612364 -0.0328662 0.0308043 0.00623218 0.0119769 0.0408999 -0.0301022
-0.0445628 -0.0305315 0.000261774 -0.0443068 -0.0409154 -0.039075 -0.018241 -0.0391542
0.0165891 -0.02028 -0.00938437 0.00947419 0.00244117 -0.00687457 0.017803 0.0133884
-0.0188857 0.0212306 0.0462396 -0.038771 -0.0571979 -0.0209005 -0.00202661 -0.0317704
-0.0133663 0.0349662 -0.0421921 0.0187886 -0.0195476 0.0233449 -0.0257215 -0.0495211
0.0144311 0.0373522 -0.056663353 0.095707536 0.37737584 -0.09027226 -0.3612041 0.2742279
00000000: d5d1 293e a242 f4be 4679 7f3e f214 8a3e
00000010: d631 cfbf a999 80bd b9d9 6ebd 96eb 3b3b
00000020: f00c e8bf 32a1 f0be 10af 6d3d 1028 2dbf
00000030: d663 473d c1b2 71bf 5036 dfbe 385c 26bf
00000040: e68b 0d3f c0f1 1ebb 8739 483f 6280 2e3f
00000050: a68f 583e 750f aabd fc04 92bc 8273 a6bf
00000060: 3bc5 153e c90c c0bf ed8a d43e 3e81 3ebe
00000070: 8d4b 37be 9cae 00c0 8269 09bf 23b1 66be
00000080: cca1 393e dcdc 393e 9bc8 14bf dffe bdbb
00000090: 5770 dabf 00b5 a73d 61a6 4d3e 1bd6 6fbe
000000a0: ff8b 5bc0 d7c5 bdbe 358e 0a3e 2bcd 91bf
000000b0: 6b0a 773e 3125 45be 6eb7 02be 3c85 e4be
000000c0: e9e4 dc3e acb1 183f bf2e ff3d 2db1 1a3f
000000d0: 9d38 8bbf 43dc 9dbd 5538 e8be 8044 a3be
000000e0: 8531 3e3b 497e f93e 7fc9 753d 39c8 453e
000000f0: 19a3 f63e 0bf0 a3be e589 5bbc 2e31 f83c
00000100: 4b3e c63e 83e5 abbd a3df b33e d857 a23e
00000110: 50ae 2dbd 5bd3 a13e 4a25 a7bd 9369 8a3e
00000120: 6a44 a6bd 6cc3 24bd 3d36 7c3e 3b8b 19be
00000130: 9cf7 c0be c9cb 7ebf d5f5 0e3d fa0e 50be
00000140: 78a4 3bbe 5c90 48bf 47dc f6bd a3d4 63bf
00000150: 967b 21be 10fa 87be 7e11 8cbe 0992 e3be
00000160: c7a7 223e e8ec 0bbf 9626 263e 1c06 673e
00000170: 9a22 2fbe 02aa 90be 8266 d3bc 8cb6 27bd
00000180: 0398 ad3d 9d7b 473f 383a a5be ee52 85bc
00000190: b3a0 0bbd 99da ed3c eb03 e63b 4c4b 31bd
000001a0: 2254 c63b 969d 34bc c8e8 05bd e4c2 5c3c
000001b0: 9170 adba bbb2 30bd 9f70 1b3c cf3a d73b
000001c0: 1ebc db3c 46cc 11bd 06a8 a1bb eca4 1ebd
000001d0: bf8e 493c abdf 96bc fd1d 80bc b694 5dbd
000001e0: d7ca 993b 6388 b53b 392a 373c 965d 10bd
000001f0: 37dc 6cbc 4e0e ba3c bf28 01bd 9c50 083d
00000200: 257a d73b 1aec 5cbd ce07 8f39 3ec9 c23c
00000210: 8f36 0c3c 5b22 d73c 7743 ff3c 29e1 ee3c
00000220: 1456 91bb 8de0 353c a6de cbbb e53e 9cbb
00000230: 574b f0bc 25fe cdbc 4bdb 89bd 3374 87bc
00000240: e7ce 023c 28c8 19bd 8873 83bc e031 973c
00000250: 90bf 34bd ef97 0abd e652 31be eb9c 4d3f
00000260: d10f fabe 1067 9dbe 68a5 95be 0f5f 33be
00000270: 1d67 96bd f6b1 3c3d a9c2 8bbd 6830 b43e
00000280: 26fa f13e 209f 6b3e 07a8 e53b 8fc1 2abe
00000290: 25ed 223e 81ac 093d 5c87 76bd 4d68 433f
000002a0: 7661 0fbe d6d2 463e b7f5 aa3e 05d7 99bc
000002b0: e863 3e3e 1f31 50bd 353d 56bd cf71 503f
000002c0: a09c 01bf 1aa3 edbe ecbb 853e 991b 96be
000002d0: a841 19be 4b66 b93e 70c9 ad3e b870 3d3f
000002e0: 3736 07bf 165d 8b3e dfd3 253d e7f2 49be
000002f0: 33ea 8c3d 512b 943e 0d99 8dbe e16f 82bd
00000300: 6d4b 31bf f47b 90be a04c 843d 5b4e 3ebe
00000310: 5279 9f3f eb2f 0dbf 94bb 96bd 3bf3 fcbe
00000320: 7f06 063c c8b1 153d 5888 b3bc 9c9d 56bd
00000330: 5ace ef3c 1904 56bd df9d e1bc f8c8 21bd
00000340: 1075 1f3c 0d87 203a b59e 06bd 4d59 fc3c
00000350: 5137 cc3b c23a 443c a786 273d e498 f6bc
00000360: 7c87 36bd 321d fabc b63e 8939 0c7b 35bd
00000370: e896 27bd 1b0d 20bd 266e 95bc 2860 20bd
00000380: dde5 873c 3e22 a6bc e7c0 19bc a239 1b3c
00000390: 09fc 1f3b 1344 e1bb 99d7 913c 055b 5b3c
000003a0: 2fb6 9abc cceb ad3c bc65 3d3d 57ce 1ebd
000003b0: 5848 6abd 8637 abbc e0d0 04bb ae21 02bd
000003c0: 53fe 5abc b838 0f3d a0d1 2cbd 8dea 993c
000003d0: 4a22 a0bc ce3d bf3c e5b5 d2bc a3d6 4abd
000003e0: 6c70 6c3c 9ffe 183d d517 68bd 5002 c43d
000003f0: 6837 c13e aae0 b8bd beef b8be 9967 8c3e

MatMul_H4.bias f4 [50]
1.6478485 -0.19265446 -0.0362809 -1.4617232 -0.0153315 0.9281581 -1.5372058 -1.0743285
0.7871206 0.44909698 0.47240105 1.1694754 -1.6112123 -0.057293445 0.83546877 -0.49758515
-0.5427336 0.64848477 0.6839818 -1.116412 0.62115276 0.5199384 0.5659194 -0.31734824
-0.6855786 -0.090783365 -0.0178349 1.2314143 0.12433512 -0.314021 0.51652116 0.32503578
-0.7328783 0.785709 -0.0330298 -1.3493909 0.29918656 0.14047742 0.39699584 -0.142684
-0.39717808 -0.56175065 0.35526767 0.15666407 0.49244466 -0.7605135 0.57347333 1.0938625
-0.81334513 -0.0321186
00000000: b3ec d23f 3647 45be 489b 14bd bf19 bbbf
00000010: f930 7bbc c59b 6d3f 29c3 c4bf 9983 89bf
00000020: bc80 493f 0af0 e53e 8dde f13e 5fb1 953f
00000030: 343c cebf 88ac 6abd 48e1 553f 7bc3 febe
00000040: 97f0 0abf 1903 263f 6e19 2f3f 97e6 8ebf
00000050: de03 1f3f af1a 053f 18e0 103f 787b a2be
00000060: 1482 2fbf a1ec b9bd 7f1a 92bc fc9e 9d3f
00000070: 69a3 fe3d 5cc7 a0be bb3a 043f 176b a63e
00000080: ea9d 3bbf 3a24 493f 414a 07bd d7b8 acbf
00000090: fb2e 993e 50d9 0f3e 0a43 cb3e c11b 12be
000000a0: ed5a cbbe e4ce 0fbf a5e5 b53e 8c6c 203e
000000b0: b521 fc3e 03b1 42bf 26cf 123f b003 8c3f
000000c0: 6337 50bf cb8e 03bd

MatMul_H5.weight f4 [50, 50]
0.0980371 -0.171771 0.0148921 0.247513 -0.0158633 0.315379 0.523345 -0.349403
-0.123501 0.0304204 -0.157497 0.208438 -0.394833 0.141221 -0.363609 0.201256
-0.115855 -0.124305 -0.414371 0.350462 -0.059118 -0.0956182 -0.0926555 0.116119
0.329686 -0.270622 -0.0287566 0.060064 -0.0786342 -6.39903 0.0799979 -0.346141
-0.139941 -0.274399 -0.0381644 0.00201087 -0.0693475 -0.231321 -0.331006 0.171743
0.0661235 -0.13453 -0.0154298 -0.423713 0.186678 0.775105 0.181033 0.174499
0.212803 -0.0387454 -0.35911185 0.03502937 0.0337083 0.14478691 -0.0484257 0.07135338
0.24413367 0.26769838 0.11554008 0.17783877 -0.2660656 0.18748717 0.017439226 -0.30818555
0.07981072 -1.653574 -0.21293515 0.1599257 0.03942308 0.4411298 -0.40742624 -0.2867682
-0.2962654 -0.7149575 0.04531246 -0.067157224 0.0176768 0.025622007 0.02828144 0.43957552
-0.023501923 0.060266003 0.07459359 0.07717633 -0.0189982 -0.23953384 -0.07739299 0.102990195
-0.011175581 -0.21712302 0.124874584 -0.1301111 0.07924628 -0.24441515 0.8335049 -0.047766637
0.03905878 0.4262649 0.09669002 0.0192749 -0.12243417 -0.10564794 -0.000799956 0.059146587
0.0321181 0.499517 -0.7679692 -0.17203715 0.0051831873 -0.13449797 0.017813781 0.061923705
-0.10126538 -0.1015953 0.18856162 0.048015237 0.17548165 0.34830958 0.26733765 -0.10317329
0.07083875 -0.067010164 0.06667037 0.110242344 0.34595248 0.058663003 0.0495631 -0.061946068
0.024998397 0.122041926 -0.19400766 -0.017535122 0.12526545 0.16885376 0.0431778 0.1373386
-0.3078246 -0.17844605 -0.1505048 -0.37599903 0.13969971 0.08683772 0.21707018 0.1636804
0.038544375 -0.06048936 -0.019656472 0.03568755 0.19336553 0.0504073 -0.09976687 -0.11853801
0.00905115 -0.03155397 0.0218564 0.36378878 -0.8070234 0.35334083 -0.014970549 -0.11009888
-0.02735884 0.034996856 -0.13098562 -0.05030098 0.13435602 0.1129307 0.13808215 0.21410097
0.17059845 -0.123287864 0.038522676 -0.07952614 0.0170371 0.104210086 0.2622981 0.029531965
0.0112446 -0.0884761 -0.01778704 0.04821793 -0.18863046 -0.059124924 0.06692426 0.10701311
0.0328742 -0.010477075 -0.24161667 -0.16022125 -0.13576798 -0.29157898 0.02951936 0.045268916
0.16081427 0.108761266 -0.09035104 -0.06784495 -0.06323956 -0.049504086 0.120415516 0.000427182
0.4240285 0.42289108 0.0282922 -0.36350143 -0.0398932 -0.0357726 -0.5374144 -0.0400859
-0.26850635 0.22891824 0.07434615 0.02180877 -0.10563608 0.45898712 -0.33879843 -0.703457
-0.23257206 -0.2990766 0.1995906 0.57551396 -0.5651752 -0.36462042 0.012721658 -0.64967
0.03896527 -0.68303263 -0.0304029 0.16670287 -0.2238802 0.12571457 0.42045712 0.29405633
0.14081465 0.7416809 -0.0179381 0.75230795 -0.060543984 -0.09482346 0.09064669 -0.027678974
0.13389735 -0.46667314 -0.16287589 0.17820907 -0.23747587 0.22443688 -0.045470674 1.0229264
0.161308 0.0305504 -2.7773833 -1.0148236 -0.0376289 2.5525956 -0.0125443 2.339137
00000000: adc7 c83d bde4 2fbe fffd 733c 0c74 7d3e
00000010: c0f3 81bc 5b79 a13e f0f9 053f f3e4 b2be
00000020: 18ee fcbd 3434 f93c e546 21be c570 553e
00000030: 8d27 cabe 3d9c 103e f52a babe 0e16 4e3e
00000040: 6345 edbd 9f93 febd 7028 d4be c16f b33e
00000050: b725 72bd 7ad3 c3bd 2bc2 bdbd cccf ed3d
00000060: 9acc a83e f78e 8abe f692 ebbc ab05 763d
00000070: f80a a1bd dbc4 ccc0 f0d5 a33d 6539 b1be
00000080: b24c 0fbe 077e 8cbe 4652 1cbd cdc8 033b
00000090: 1006 8ebd 6adf 6cbe 9e79 a9be 66dd 2f3e
000000a0: c26b 873d 3bc2 09be 46cd 7cbc e9f0 d8be
000000b0: 8528 3f3e 486d 463f b760 393e deaf 323e
000000c0: 08e9 593e 7fb3 1ebd 82dd b7be f57a 0f3d
000000d0: b711 0a3d 0543 143e 075a 46bd b921 923d
000000e0: 2dfe 793e c30f 893e 47a0 ec3d 5e1b 363e
000000f0: c039 88be a3fc 3f3e b5dc 8e3c 7fca 9dbe
00000100: ce73 a33d 50a8 d3bf ac0b 5abe 90c3 233e
00000110: 187a 213d c4db e13e 2c9a d0be 48d3 92be
00000120: 19b0 97be 7407 37bf 8f99 393d ba89 89bd
00000130: f0ce 903c 3ee5 d13c 7aae e73c 0b10 e13e
00000140: 1b87 c0bc 7cd9 763d 86c4 983d a00e 9e3d
00000150: 1da2 9bbc 5c48 75be 3780 9ebd 86ec d23d
00000160: c919 37bc 7f55 5ebe 3fbe ff3d d83b 05be
00000170: e04b a23d f747 7abe 9460 553f f3a6 43bd
00000180: 19fc 1f3d 653f da3e 6b05 c63d 65e6 9d3c
00000190: c4be fabd f25d d8bd 23b4 51ba b143 723d
000001a0: 458e 033d b1c0 ff3e a199 44bf 822a 30be
000001b0: bad7 a93b d6b9 09be 35ee 913c b6a3 7d3d
000001c0: 3964 cfbd 3211 d0bd 4c16 413e a0ab 443d
000001d0: 76b1 333e a255 b23e 7be0 883e 854c d3bd
000001e0: e813 913d a03c 89bd 7a8a 883d bdc6 e13d
000001f0: af20 b13e 9e48 703d ad02 4b3d 29bb 7dbd
00000200: 70c9 cc3c 1ef1 f93d f2a9 46be d1a5 8fbc
00000210: 9645 003e 00e8 2c3e 34db 303d 7da2 0c3e
00000220: 309b 9dbe 90ba 36be ee1d 1abe f282 c0be
00000230: 710d 0f3e f9d7 b13d a547 5e3e d69b 273e
00000240: b5e0 1d3d b1c3 77bd 9c06 a1bc 1c2d 123d
00000250: 9d01 463e e377 4e3d 9352 ccbd 0ec4 f2bd
00000260: 464b 143c bc3e 01bd 310c b33c 8642 ba3e
00000270: 1699 4ebf 17e9 b43e 0947 75bc 867b e1bd
00000280: a51f e0bc dd58 0f3d 1821 06be 6708 4ebd
00000290: a094 093e 3648 e73d 6865 0d3e 493d 5b3e
000002a0: 5cb1 2e3e 597e fcbd f4c9 1d3d 9ade a2bd
000002b0: 6391 8b3c 196c d53d f04b 863e 05ed f13c
000002c0: 453b 383c f532 b5bd 20b6 91bc 2a80 453d
000002d0: 5828 41be fa2c 72bd 960f 893d b029 db3d
000002e0: 19a7 063d 0aa8 2bbc 5c6a 77be 0a11 24be
000002f0: c306 0bbe d749 95be 96d2 f13c e66b 393d
00000300: 7fac 243e 3abe de3d f709 b9bd 4bf2 8abd
00000310: be83 81bd ccc4 4abd 699c f63d 66f7 df39
00000320: 431a d93e 2e85 d83e 0bc5 e73c dc1c babe
00000330: 0d67 23bd 4a86 12bd fd93 09bf 1d31 24bd
00000340: aa79 89be 8b69 6a3e cb42 983d 4ea8 b23c
00000350: bb57 d8bd 5c00 eb3e fd76 adbe c215 34bf
00000360: 5f27 6ebe 9120 99be 7a61 4c3e e254 133f
00000370: 52af 10bf 87af babe 806e 503c c650 26bf
00000380: 0c9a 1f3d 3adb 2ebf 810f f9bc 28b4 2a3e
00000390: da40 65be 52bb 003e 2846 d73e 8d8e 963e
000003a0: b731 103e cdde 3d3f ecf2 92bc 4197 403f
000003b0: f8fc 77bd cd32 c2bd f9a4 b93d 04bf e2bc
000003c0: 631c 093e c8ef eebe f0c8 26be 707c 363e
000003d0: e02c 73be c8d2 653e 753f 3abd 41ef 823f
000003e0: ed2d 253e d544 fa3c a6c0 31c0 bde5 81bf
000003f0: c320 1abd ba5d 2340 9c86 4dbc 6cb4 1540

MatMul_H5.bias f4 [50]
0.271396 -0.11679226 0.03452069 -0.12160808 -0.64583355 -0.034215927 0.20719732 -1.1680576
0.27395755 -0.12609169 -0.6511542 -0.3196297 -0.5844776 -0.17506985 0.0562504 0.07645681
0.4770009 -0.5663697 0.1095116 -2.1191573 -0.55621433 0.27941793 -0.0649916 -1.4680144
0.1586609 0.07449627 0.4812795 -0.6663273 -0.29641044 -1.3532737 0.32986006 -0.02597002
-0.00204377 -0.0618325 0.11244301 0.23401149 -0.3360338 -0.057846565 -0.22975075 -0.19772078
-0.7931093 0.17080005 -0.0881879 -0.0684589 0.1256948 0.27456197 0.06887237 0.27410233
0.17610523 -0.029134
00000000: 6bf4 8a3e c830 efbd 9165 0d3d a80d f9bd
00000010: 5955 25bf 0026 0cbd 892b 543e e982 95bf
00000020: 2a44 8c3e 2e1e 01be 0bb2 26bf 81a6 a3be
00000030: 53a0 15bf 8345 33be d266 663d 6395 9c3d
00000040: 7639 f43e 9bfd 10bf 9e47 e03d 46a0 07c0
00000050: 1064 0ebf de0f 8f3e 511a 85bd e5e7 bbbf
00000060: 0178 223e 8091 983d 446a f63e 6d94 2abf
00000070: 1cc3 97be 1338 adbf 6be3 a83e 14bf d4bc
00000080: c5f0 05bb 1344 7dbd 8548 e63d b5a0 6f3e
00000090: 9f0c acbe 85f0 6cbd c843 6bbe 5177 4abe
000000a0: 3609 4bbf 35e6 2e3e dc9b b4bd 2e34 8cbd
000000b0: 23b6 003e 6393 8c3e f50c 8d3d 2457 8c3e
000000c0: ee54 343e 6daa eebc

MatMul_y_out.weight f4 [5, 50]
0.0721205 0.07644228 0.16326953 -0.11684471 0.017437592 0.034143474 -0.07822324 0.050663207
0.034359388 0.18363039 0.1092837 0.06064307 0.14784567 0.06979698 0.254471 0.08684275
0.059754997 0.036078814 0.0734764 0.0003253016 0.095186085 0.05879256 0.16088243 0.057975337
-0.018454501 0.023523327 0.055077687 0.06020541 0.07961902 0.07549276 -0.0066786157 0.04870494
-0.00351987 0.0105698 0.047599275 0.036880065 0.032302544 0.061114457 0.046381816 0.06558333
-0.00085316197 0.09824831 0.013055444 0.0559984 0.0006512294 0.041681156 0.09575014 0.108142085
0.023718616 0.0235247 0.0744417 0.06143405 0.039433993 0.050849512 0.027144782 0.02396348
0.01155623 0.016449828 0.03252672 0.01571547 0.12778369 0.06212012 0.14475617 0.08468489
0.77516 0.038261797 0.06548615 0.03323583 0.083520085 -0.004026174 0.12029638 0.059830654
0.16651045 0.041071493 -0.018001482 0.01839235 0.07209383 0.03293871 0.0775025 0.07639881
0.011263053 0.07026597 -0.0127007 0.0517237 0.060657784 0.027304217 0.049777176 0.073552854
0.05716091 0.0492063 -0.018676935 0.14997493 0.037004244 -0.00693645 -0.012263694 0.04274835
0.090876095 0.1324441 0.024064895 0.014767 0.0681541 0.065780744 0.05130685 0.030589988
0.017672498 0.026460864 -0.0005276854 0.020653673 0.038112734 0.034723 0.1098027 0.06959288
0.14836398 0.07898207 0.66402 0.059838016 0.05446868 0.047572 0.07776882 0.04152058
0.09863657 0.06621442 0.17571457 0.044658728 -0.018204184 0.044244003 0.055685557 0.04945012
0.1046457 0.067055196 -0.0067984327 0.046392877 -0.0533286 -0.00392744 0.064702675 0.0717664
0.0052325414 0.06529103 0.033974398 0.06071405 -0.0007707866 0.076288626 0.0175071 0.000266021
-0.010335887 0.029690174 0.09161262 0.14480205 0.069735534 0.00741944 0.0783068 -0.0354254
-0.01285739 -0.019232305 0.01371427 -0.052128956 -0.016404117 -0.01591938 -0.0799515 -0.043006692
0.13102926 -0.019208316 0.032235004 0.01058359 0.539092 -0.021712523 -0.042790845 -0.0415465
0.028624147 -0.05066861 -0.08225765 -0.07132113 -0.1550369 -0.0006897077 -0.033092245 -0.0032861992
-0.02616899 -0.027286729 -0.06713551 -0.07107528 0.012483343 -0.0076261093 -0.0209468 0.0708585
-0.015909266 -0.06479125 -0.046960745 -0.027186433 -0.0145118255 -0.02251411 -0.04632186 -0.09757891
0.01804475 -0.00187436 -0.0034776984 -0.06013386 0.009818557 0.14803745 -0.04837699 0.0428856
0.0197646 0.056882974 0.04588865 0.03388397 0.0007672307 0.019313587 0.00081386656 0.022150725
0.036753286 0.031775393 0.065907106 0.070507444 0.14601018 0.07670224 0.624746 0.018038671
0.051349714 0.055036545 0.0777224 0.0887839 0.091135874 0.06886659 0.23504034 0.053696483
-0.017133329 0.044564404 0.034276173 0.05369192 0.1273876 0.06254137 -0.031020142 0.027928224
-0.0323504 0.0178896 0.062633246 0.07699004 -0.0007639972 0.06306646 0.022080746 0.061559226
0.018385082 0.059158318 0.0054706205 -0.00168697 -0.004612964 0.019359866 0.087810665 0.11410912
0.079406686 -0.0329993
00000000: eab3 933d c58d 9c3d 2130 273e 484c efbd
00000010: 48d9 8e3c 07da 0b3d 8233 a0bd 3984 4f3d
00000020: 6ebc 0c3d 9b09 3c3e 22d0 df3d de64 783d
00000030: db64 173e b8f1 8e3d 064a 823e 9dda b13d
00000040: a8c1 743d 61c7 133d cb7a 963d 3e8d aa39
00000050: ecf0 c23d 78d0 703d 5dbe 243e 8c77 6d3d
00000060: e52d 97bc feb3 c03c 2499 613d f399 763d
00000070: 4c0f a33d f39b 9a3d 4ad8 dabb d57e 473d
00000080: 9fad 66bb f42c 2d3c 75f7 423d 8d0f 173d
00000090: ac4f 043d 2753 7a3d dcfa 3d3d 8e50 863d
000000a0: bba6 5fba 6936 c93d 80e6 553c 945e 653d
000000b0: 44b7 2a3a dcb9 2a3d a618 c43d 9979 dd3d
000000c0: 8b4d c23c dfb6 c03c e474 983d 45a2 7b3d
000000d0: 8a85 213d 9447 503d bc5e de3c 0f4f c43c
000000e0: 5756 3d3c cac1 863c bd3a 053d bbbd 803c
000000f0: bad9 023e ab71 7e3d f63a 143e 466f ad3d
00000100: e370 463f 67b8 1c3d 9a1d 863d 4b22 083d
00000110: 940c ab3d ffed 83bb f35d f63d fd10 753d
00000120: b781 2a3e 953a 283d d877 93bc 8eab 963c
00000130: eea5 933d beea 063d a1b9 9e3d fb76 9c3d
00000140: ab88 383c 9be7 8f3d 9916 50bc 3bdc 533d
00000150: 4c74 783d 18ad df3c 27e3 4b3d e1a2 963d
00000160: 8f21 6a3d 8c8c 493d 5f00 99bc 0793 193e
00000170: c391 173d 294b e3bb a9ed 48bc e518 2f3d
00000180: 3f1d ba3d 6d9f 073e be23 c53c 4af1 713c
00000190: 6094 8b3d 0eb8 863d 2227 523d db97 fa3c
000001a0: eac5 903c 74c4 d83c 5e54 0aba e431 a93c
000001b0: 191c 1c3d b439 0e3d 3de0 e03d b686 8e3d
000001c0: baec 173e 5ac1 a13d 37fd 293f b518 753d
000001d0: 8d1a 5f3d dcda 423d 4245 9f3d 7c11 2a3d
000001e0: f801 ca3d 6d9b 873d 85ee 333e 12ec 363d
000001f0: f120 95bc 3339 353d 8a16 643d 368c 4a3d
00000200: 7c50 d63d 3c54 893d 63c5 debb 7506 3e3d
00000210: 176f 5abd c1b1 80bb d682 843d 43fa 923d
00000220: bd75 ab3b 4eb7 853d bd28 0b3d 4caf 783d
00000230: 9d0e 4aba 363d 9c3d 0d6b 8f3c bc78 8b39
00000240: da57 29bc cf38 f33c 669f bb3d fd46 143e
00000250: 81d1 8e3d c61e f33b 515f a03d 391a 11bd
00000260: cda7 52bc 118d 9dbc d1b1 603c 2c85 55bd
00000270: ed61 86bc 5c69 82bc 9dbd a3bd c927 30bd
00000280: 892c 063e c25a 9dbc da08 043d cb66 2d3c
00000290: ef01 0a3f 76de b1bc 7445 2fbd aa2c 2abd
000002a0: 307d ea3c e389 4fbd b376 a8bd d010 92bd
000002b0: fec1 1ebe 80cd 34ba bc8b 07bd 465d 57bb
000002c0: 5a60 d6bc 6b88 dfbc 587e 89bd eb8f 91bd
000002d0: ef86 4c3c 71e4 f9bb a098 abbc 431e 913d
000002e0: 2654 82bc 46b1 84bd e959 40bd 15b6 debc
000002f0: 02c3 6dbc 836f b8bc febb 3dbd 74d7 c7bd
00000300: 95d2 933c 16ad f5ba 19ea 63bb ec4e 76bd
00000310: 03de 203c 2197 173e f326 46bd d0a8 2f3d
00000320: 5fe9 a13c 1ffe 683d bdf5 3b3d ebc9 0a3d
00000330: fb1f 493a 8737 9e3c a959 553a 7075 b53c
00000340: 9d8a 163d ea26 023d 4efa 863d 3566 903d
00000350: b183 153e 1016 9d3d 5bef 1f3f d6c5 933c
00000360: 1454 523d 006e 613d ec2c 9f3d 55d4 b53d
00000370: 72a5 ba3d ed09 8d3d 6aae 703e d8f0 5b3d
00000380: 325b 8cbc 2a89 363d 2c65 0c3d 0fec 5b3d
00000390: e571 023e b115 803d f41d febc bbc9 e43c
000003a0: da81 04bd 368d 923c dc45 803d f4ac 9d3d
000003b0: fc46 48ba fd28 813d aee2 b43c 8725 7c3d
000003c0: 509c 963c fe4f 723d e442 b33b 521d ddba
000003d0: 5928 97bb 9598 9e3c 14d6 b33d 0bb2 e93d
000003e0: f99f a23d 462a 07bd

MatMul_y_out.bias f4 [5]
0.033387233 0.015377034 0.054624226 -0.019264586 0.05500004
00000000: 0dc1 083d f5ef 7b3c a7bd 5f3d c4d0 9dbc
00000010: b947 613d
