ACAS_Xu/models/model_5.pth (torch, 57723 bytes, 14 tensors)

MatMul_H0.weight f4 [50, 5]
000000 74 a8 d6 3d b7 60 44 3f 67 c2 47 bf 60 30 02 be
       0.10481349 0.76710075 -0.7803101 -0.12713766
000010 9d 8f b4 bf db 95 ac 3d 7a 75 13 3f bb 02 bf 3e
       -1.4106327 0.0842702 0.5760113 0.3730677
000020 c7 8c 8d be b7 57 5e 3e b3 5b d8 bf 52 3d 2b bb
       -0.27646467 0.21713148 -1.6902984 -0.002612908
000030 95 b2 0c 3c 32 ae ae bc 23 4d 83 3d a2 2f 5e 3e
       0.008587499 -0.021323297 0.06411197 0.21697858
000040 2c f0 b7 3f 3c ad c0 bf 07 ca bb 3d 91 ff 2f bd
       1.437017 -1.5052867 0.09169393 -0.042968336
000050 bc 76 85 bd 39 3d a0 3f e1 47 9d 3d 21 61 42 3d
       -0.065167874 1.2518684 0.076797254 0.04745591
000060 b1 cd 22 3c 12 b5 15 3d 51 6b b8 bd f9 64 11 3e
       0.009936736 0.036549635 -0.09004844 0.14198674
000070 52 a1 17 bf 84 d5 1c 3f bd 62 a1 be 19 41 e7 be
       -0.5923053 0.612633 -0.31520644 -0.45166853
000080 32 45 10 be e5 3b 90 3e b4 9a fa bc 00 af 21 3c
       -0.14088896 0.28170696 -0.030591346 0.009868383
000090 bb 66 ce 3c 85 13 71 bd f0 e2 59 bf 58 d2 6e bf
       0.02519547 -0.058856506 -0.85111904 -0.9328971
0000a0 98 72 99 3c 40 7e df 3b 2b cb ec b7 08 cb 79 3b
       0.0187314 0.00682047 -2.8228e-05 0.00381154
0000b0 43 4a 7d 3b ee 7e 03 bf 50 c8 a4 3e d0 7f 68 3d
       0.0038649 -0.51365554 0.32184076 0.056762516
0000c0 e2 73 8a 3d e4 3f 0b 3d c3 9d 02 3d 9b f8 08 3f
       0.06760384 0.033996478 0.031888735 0.5350434
0000d0 a0 b2 c9 3d 00 8a 41 be d0 8c f3 bc ff be b9 3d
       0.09848523 -0.18900299 -0.02973023 0.09069633
0000e0 9e 9c ab bd 86 51 a2 3f 20 6b 98 3d 12 49 13 be
       -0.08379482 1.2681129 0.074423075 -0.14383343
0000f0 dc 33 16 bd fa d3 4c 3a c6 9c 1d 3c c6 ca 14 bf
       -0.03667055 0.00078135694 0.009619897 -0.5812191
000100 58 83 a9 bf d4 a2 1a 3d f6 37 43 bd a3 05 f8 3d
       -1.3243208 0.03775294 -0.04766079 0.1211045
000110 35 cb b3 bf 78 f9 43 3f 77 1d 67 bf be b0 88 bd
       -1.4046389 0.76552534 -0.90279335 -0.06674336
000120 5a 3c ae 3c a1 dd c0 bb 85 43 38 3d f7 ab 94 3c
       0.021269012 -0.005885795 0.044986267 0.018148405
000130 d4 73 e3 3d 73 b7 1a 3f 0c 9a 33 bf 3c d0 dc 3d
       0.11106077 0.6043617 -0.7015693 0.10781905
000140 b8 19 85 3c ba c7 cf 3c f7 e2 06 bf c6 62 03 3f
       0.016247615 0.025363792 -0.5269007 0.5132259
000150 d2 c4 50 bf 21 5e 24 bf 68 e1 0a 3e c8 f7 e2 bd
       -0.81550324 -0.6420613 0.13562548 -0.11082417
000160 fe 69 c2 be b8 5d 52 3e 85 3c 98 bf b8 ae f0 3d
       -0.3797149 0.20543563 -1.1893469 0.11752075
000170 20 e7 a4 bd b4 31 9c be ca 88 17 bf 51 ea be bf
       -0.08051896 -0.3050667 -0.591931 -1.4915258
000180 0c 28 8a 3a b9 55 0c 3b 22 fa 5f bc ae 90 3c 3d
       0.0010540499 0.00214134 -0.013670476 0.046036415
000190 62 9a d0 bb 6c 88 1e 3b 36 a5 23 bb 42 c4 55 3b
       -0.00636606 0.00241902 -0.00249703 0.00326182
0001a0 ad 62 bb 3b 2f 48 d1 3c b6 ff 90 3f b1 0a 05 bb
       0.00571855 0.025547115 1.1328037 -0.0020300562
0001b0 d3 1a 33 3e 22 43 24 be 13 67 3e bd 3d 1d fb bc
       0.17490701 -0.16041234 -0.046485018 -0.03065359
0001c0 27 18 f1 3d 28 44 7e 3d 51 88 04 c0 5d 82 a5 bf
       0.11772185 0.062076718 -2.07082 -1.2930409
0001d0 36 af 8f 3d 5d 40 ae bd 42 88 a4 3e 48 f6 cf be
       0.07015841 -0.0850837 0.32135206 -0.40617585
0001e0 1b 63 43 bf f0 8c 89 3e 8b cb e4 be 47 1a be 3d
       -0.763231 0.2686534 -0.4468654 0.09282356
0001f0 a1 07 c5 bb 83 30 9e bf 30 13 ac bb 21 ed 93 3b
       -0.0060128723 -1.2358555 -0.0052513108 0.004514352
000200 e4 58 ac bb 7b 33 d0 be f8 4f ba bc 67 74 30 bd
       -0.00525962 -0.40664276 -0.02274321 -0.04307976
000210 4b d2 36 3c 8b 26 41 bf bb 5a d1 bd 02 53 03 3d
       0.011158536 -0.75449437 -0.102223836 0.032061584
000220 02 73 9b bf f6 54 6b 3f 23 72 7c bc 2a d6 fa 3c
       -1.2144473 0.91926515 -0.015408072 0.0306197
000230 35 41 0b 3d 8a 97 fd 3f 6f d5 64 3c 69 05 53 3d
       0.033997733 1.9811871 0.013966902 0.05151883
000240 9d 78 81 bd 37 8d bb bf ff d1 a0 3c c2 57 47 bd
       -0.06321833 -1.465247 0.019631384 -0.048667677
000250 22 0d 7a be b3 44 0a bd d2 f2 b2 3e 02 6c 6d 3f
       -0.24419072 -0.033756923 0.34950882 0.9274293
000260 3d 51 4a bf c3 a5 0d bd 43 a7 d1 3d e8 0e af be
       -0.7903021 -0.03458191 0.10236981 -0.3419106
000270 bc 23 1d bd 9d 82 12 3f fd 91 9b bc 14 ab 82 bd
       -0.038364157 0.5723055 -0.018990511 -0.06380287
000280 9d e4 73 3d 09 5a 6b 3f 5b d8 30 3d 9e 9a b1 be
       0.059544194 0.9193426 0.043175083 -0.34688276
000290 d2 f1 07 3a 83 36 bb bf a0 7a 5b 3d 17 32 7c bc
       0.00051858753 -1.4626011 0.05358374 -0.015392802
0002a0 bc da 5e be 34 e7 a8 be 94 d1 ec 3c c0 bb 3b bd
       -0.21763128 -0.32988894 0.028908528 -0.04583335
0002b0 97 ac 8a bf d0 47 83 bf bf b2 8a 3e 33 d7 33 3c
       -1.083392 -1.025629 0.27089497 0.0109766
0002c0 a1 23 20 3c 3a 21 b6 3a 80 fe ef 3a 30 17 be b9
       0.00977412 0.00138954 0.00183101 -0.000362569
0002d0 35 1a e3 bf 92 e6 26 3a 78 ad 0d bc 25 b1 01 3c
       -1.7742373 0.0006366755 -0.008647315 0.00791577
0002e0 da 56 cd 3c 5a a3 85 3c 9b 1f 4f 3e 3b 78 32 be
       0.025065828 0.016313244 0.202269 -0.17428677
0002f0 9e 7f 01 c0 75 bc ce 3e b1 71 b8 3d 77 33 6c bf
       -2.0234141 0.40378156 0.0900606 -0.9226603
000300 2d 96 7e bf 5b 10 4f 3d 4f 95 b1 bd e5 e6 4d bf
       -0.994479 0.050552707 -0.086710565 -0.8043044
000310 34 11 1e 3d b5 e3 71 bc 37 5f 69 bf a6 1f 02 bf
       0.038590625 -0.014763762 -0.9116091 -0.5082954
000320 00 a7 8d bc e4 e1 71 bd 38 b3 d4 3d a5 f0 83 bd
       -0.017291546 -0.059053317 0.10385746 -0.06442384
000330 8f 92 8f bf cf c4 8a bd b0 be 25 3f a5 b6 f9 be
       -1.1216601 -0.067758195 0.6474409 -0.4877216
000340 43 5f d1 3c fb 77 11 be 0d ba bc 3e d9 05 8c bf
       0.02555812 -0.14205925 0.36860695 -1.0939285
000350 44 65 73 3f df 62 17 bd d4 62 7c bd 44 3a 46 3e
       0.95076394 -0.036959525 -0.061617687 0.19358164
000360 0a 63 64 3d 58 cb 23 bd b7 12 3d bf 40 30 87 bf
       0.055758514 -0.039988846 -0.7385668 -1.05616
000370 c5 6e cd be 99 b7 a9 3c 36 5f 6c bc 77 99 3f be
       -0.40123573 0.020717429 -0.014426997 -0.18710886
000380 b2 e9 31 bd 65 88 5e be ce 4d a5 3e 28 6c 35 bf
       -0.04343576 -0.21731718 0.32285923 -0.7086816
000390 b5 40 93 bd b3 6b ec 3e 36 a7 ba 3c b8 ba d1 3d
       -0.07190076 0.46175918 0.02278481 0.10240692
0003a0 a2 03 e3 bf d6 ed 57 bb 95 81 1a bc 1f 33 d0 3a
       -1.7735484 -0.0032948158 -0.009430309 0.0015884376
0003b0 28 2b a8 3e 14 02 b9 be aa 7c 8f bf 52 c5 5d bf
       0.32845426 -0.36134398 -1.120992 -0.8662921
0003c0 b8 d7 a9 bf f2 a2 14 bd 65 c5 6d 3c 7e a8 af bc
       -1.3268957 -0.03628821 0.014512395 -0.021442648
0003d0 56 fd 74 3d 1d 4f fb bc f9 74 4c 3d 6e 45 57 bd
       0.059811912 -0.030677373 0.04991624 -0.052556448
0003e0 e9 02 b0 bf 88 cd 29 3f
       -1.3750888 0.6632924

MatMul_H0.bias f4 [50]
000000 0e 1c 04 bf 2f 85 a1 3d 45 6a ae be ab 87 e1 be
       -0.5160531 0.07886731 -0.34065452 -0.4404882
000010 e5 59 bd 3e fb e2 9e 3d 40 e8 a9 3c 42 db e4 be
       0.36982647 0.07758137 0.020740628 -0.4469853
000020 1f fa c9 bc 2b 4b 25 3d 73 6e 46 3e 60 75 e7 3d
       -0.0246554 0.04035489 0.1937807 0.113016844
000030 21 f6 49 bf f3 31 9a be 5d bb 3a 3c 8b 25 46 be
       -0.7889119 -0.30116233 0.01139721 -0.19350259
000040 27 27 7f 3d 78 19 a5 bd ed 55 03 bf cb aa 78 be
       0.062293198 -0.080614984 -0.5130299 -0.24283902
000050 8c 38 53 bc be d5 f0 3d 67 6a 3f bf 7a 73 c6 be
       -0.0128919 0.11759518 -0.7477173 -0.38759977
000060 d4 06 97 bd d8 24 2f be a2 ba 7c 3e 02 90 d7 be
       -0.07374349 -0.17103899 0.2468057 -0.42102057
000070 0e 38 a9 3d 45 eb 94 be 5b d5 01 3f db f6 2d be
       0.08262645 -0.29085746 0.5071618 -0.16988699
000080 f7 0b de be 01 b4 e1 be 71 8d 13 bf e5 6f cc bc
       -0.43368503 -0.44082645 -0.576377 -0.0249557
000090 d0 fd f5 be 7c e6 46 bf b6 0d d5 3c b9 fc 47 bf
       -0.48045206 -0.7769544 0.026007514 -0.7812
0000a0 de 63 87 3e 29 01 1f 3e 06 d5 19 3f 75 d8 0e bf
       0.2644338 0.15527786 0.6009067 -0.5579904
0000b0 74 28 17 3e 44 c3 0e 3c 09 4f e2 bc b5 dd 6c be
       0.14761525 0.008713547 -0.027625578 -0.2313145
0000c0 2b 76 15 be 4f 7b 1a 3d
       -0.14595859 0.037715252

MatMul_H1.weight f4 [50, 50]
000000 66 e1 53 3f f1 36 9d 3b 5e c8 6e be b3 87 e2 3e
       0.82765806 0.0047978093 -0.23318622 0.44244155
000010 fb 24 d6 bc b0 e5 d3 3f eb b5 e5 bd a3 77 d5 3e
       -0.02614068 1.655447 -0.11216339 0.41692838
000020 af 31 de bc 2d 60 1e bf 1a d5 91 be 0d ab 18 3f
       -0.0271233 -0.618655 -0.28482896 0.59636
000030 6c 44 09 3f a0 9a 7e bf e1 5b 7b bd cd 01 d2 be
       0.5362003 -0.9945469 -0.06136692 -0.41017
000040 00 8c ee 3f fb 6d ba bc 1a 60 61 3d e6 e6 0c bf
       1.8636475 -0.02275752 0.05502329 -0.55039823
000050 8e 5c 37 bd 75 ec 09 3f db f8 02 bf ef 5d 76 3e
       -0.044766 0.5387643 -0.51160973 0.2405927
000060 dc 85 32 bd 93 8a 11 3f 08 1f 8e bf 83 68 b5 3e
       -0.04358469 0.5685207 -1.110322 0.354313
000070 14 0f 65 be 4f ee f6 3e 77 da 8a be f7 b1 9a 3e
       -0.22369033 0.4822869 -0.271198 0.302139
000080 10 03 ad bd dd 2a 52 be 98 75 0e bf 9b fe 51 bd
       -0.0844785 -0.20524164 -0.55648184 -0.0512682
000090 61 18 1d 3f 96 e0 5b bf 97 e1 8d 3d 83 1c 51 bf
       0.61365324 -0.85889566 0.069277935 -0.8168413
0000a0 bf 8d 33 3f fb 45 9a be dd 03 ad be 13 55 d0 be
       0.7013816 -0.30131516 -0.3379201 -0.40689906
0000b0 c8 61 03 bf 94 39 6f 3f c7 d0 6f be f2 56 98 3f
       -0.5132108 0.9344723 -0.23419486 1.1901534
0000c0 05 00 f4 bd 78 ba 63 3e a7 82 80 3c a7 77 10 bc
       -0.11914066 0.22239101 0.0156873 -0.00881759
0000d0 67 e1 a1 bc bf 81 c9 3c aa be 2e bd 8c 4b 15 3c
       -0.0197608 0.024598 -0.0426623 0.00911225
0000e0 61 c0 37 bd 26 8f 82 3c 4f c0 40 bc 59 bd 28 bd
       -0.0448612 0.0159374 -0.0117646 -0.0411962
0000f0 07 22 ac bb 76 be c4 bc ca 65 88 3c b4 e1 55 bd
       -0.00525308 -0.0240166 0.0166501 -0.0522172
000100 15 77 57 bd 55 86 f1 bc 02 14 be bc 8b e0 3f 3d
       -0.0526038 -0.029483 -0.0232029 0.046845
000110 92 db 00 bd a9 34 fd bc 9a 01 13 bd ca ad 04 bd
       -0.0314594 -0.0309089 -0.0358902 -0.0323923
000120 e6 e3 7f 3c e9 d9 c7 3c 8b 99 f3 bc 96 b5 c9 3a
       0.0156183 0.0243959 -0.0297363 0.00153892
000130 08 a0 22 bd bc 4c 03 bd c5 b8 31 bd 17 31 47 bd
       -0.0397034 -0.0320556 -0.0433891 -0.0486308
000140 35 d8 21 3a a3 fc 49 bc f4 4a 3e bd 9c 84 b7 bc
       0.000617388 -0.0123283 -0.0464582 -0.0224021
000150 07 0e 63 bd 07 98 1a bc d8 af 85 bc db e6 01 3d
       -0.0554333 -0.00943566 -0.0163192 0.0317143
000160 8a 0e f7 bc 65 69 2f bb cf 93 9d 3b ab 6d 54 3c
       -0.0301583 -0.00267657 0.00480888 0.0129656
000170 c9 06 2d bd 72 eb 24 bc 4b ec b5 3c d8 e7 fb 3c
       -0.0422428 -0.0100659 0.0222074 0.0307502
000180 1d ee fe 3c 42 19 b4 bc e8 33 bd bb 95 02 1c bc
       0.0311194 -0.0219847 -0.00577401 -0.0095221
000190 7b 01 70 3f bc 1d 3b 3e 8d 10 ea bd 6f ba 02 3e
       0.9375226 0.18273062 -0.11428938 0.12766431
0001a0 d5 c3 56 bf 74 65 07 c0 50 5f aa 3d f5 77 30 bf
       -0.83892566 -2.1155672 0.08318961 -0.6893304
0001b0 52 c3 2d bd cc 72 48 3e 7c 2f 03 bf 97 43 3d be
       -0.0424226 0.19575042 -0.5124433 -0.18482815
0001c0 66 e6 b4 3f 98 ce c3 be 0a 71 e3 3e 57 06 45 be
       1.4132812 -0.38243556 0.4442218 -0.192407
0001d0 25 bc 85 be d3 1d ca 3e ef de 0b 3f e5 59 47 be
       -0.26120105 0.3947588 0.54637045 -0.19467886
0001e0 69 26 4e 3c e4 c4 35 bf 44 56 1a bf 76 a2 21 be
       0.0125824 -0.71003556 -0.6028788 -0.1578463
0001f0 f0 ec 4e 3f 4f 53 70 3e 43 a2 8a 3e e0 46 b0 bf
       0.8083029 0.2346928 0.2707692 -1.3771629
000200 ea 1a 9a be 37 b8 48 3d ec 9c d4 be f9 ba 6c bf
       -0.3009866 0.049003806 -0.41525972 -0.924728
000210 ee 97 bf 3d 95 27 ed 3e fd 59 47 3e 06 6a eb bb
       0.0935515 0.4631926 0.19467922 -0.00718427
000220 e9 cb 04 c0 2c c5 b7 bf 74 5c 1e 3e f0 d7 cf 3f
       -2.0749457 -1.4357047 0.15464956 1.6237774
000230 0a cf 98 3d 4a 2b f9 be 11 32 36 3f e0 c8 e7 be
       0.074613646 -0.4866584 0.71170145 -0.45270443
000240 7f f8 f6 3e d0 0d 06 3f 4d ac 61 be 82 98 5b 3e
       0.48236462 0.52364826 -0.22038384 0.21444896
000250 7a df 18 be 3f 5c 0d bf c0 82 7e 3d 93 3e c0 bc
       -0.14929 -0.5521888 0.06213641 -0.023467338
000260 37 ea 9b 3e 8e 93 3f be c1 0d 55 3e e8 a0 cc 3c
       0.3045213 -0.18708631 0.20806028 0.02497907
000270 f8 d4 66 3e db 4c d6 3e 34 05 5f 3b 97 15 25 bc
       0.22542179 0.4185551 0.00340302 -0.010075948
000280 1f 6b 1a 3e c3 2b 7c bb d2 b3 53 3f 70 3a 25 be
       0.15079926 -0.0038478232 0.8269626 -0.16135573
000290 78 de 9b 3e 6d 09 3a 3d d5 17 96 bd 2b 1a a5 3e
       0.30443168 0.045419145 -0.07328764 0.32246527
0002a0 93 ac 67 3f da ac 91 3e bb 37 d0 bc 4f c1 09 be
       0.904977 0.28452188 -0.0254172 -0.13452648
0002b0 6b a3 c7 3d 7f 1b 08 be 51 be 60 3e e9 76 d2 3e
       0.097479664 -0.13291739 0.219476 0.41106346
0002c0 40 99 f9 3e 3d 78 55 bf 1f fe 38 3e 34 74 10 3f
       0.48749733 -0.83386594 0.1806569 0.5642731
0002d0 98 ff c2 be 13 45 4d bd f5 31 47 bf fd 2c 6a 3f
       -0.38085628 -0.050114702 -0.77810603 0.91474897
0002e0 7c 00 ac 3e 47 2b 0d 3d 4b 9e 10 c0 af b3 94 3e
       0.3359412 0.0344651 -2.2596614 0.29043338
0002f0 97 38 13 3e 1a 02 0f 40 68 d2 d3 3e c4 1c 42 3d
       0.14377056 2.2345033 0.41371465 0.047390714
000300 22 15 99 be 7b ad b4 be 83 39 01 3f 16 3c e3 3e
       -0.29898936 -0.35288605 0.5047838 0.4438178
000310 0b 19 22 bf 89 20 9a 3e 19 01 9d 3e ad b5 15 3e
       -0.6331946 0.30102947 0.306649 0.14620085
000320 9b c7 fb 3d a3 19 ca 3d 46 b8 ec 3f 47 09 3a be
       0.12293931 0.09868171 1.8493736 -0.18167602
000330 7e b5 83 3e bb 50 58 3d dc 43 80 3e b3 93 95 be
       0.25724405 0.052811366 0.25051773 -0.29214248
000340 04 7c 6d bc 4a 96 e1 3e 30 24 86 be 2e 8d 7a be
       -0.0144949 0.44059974 -0.26199484 -0.24467918
000350 be 50 ec bf 02 4f 63 bd 43 06 0a 3e a0 46 0c 3d
       -1.846214 -0.05549527 0.13478951 0.03424704
000360 a4 68 08 3d 38 44 2e 3e da 49 35 3f 04 9a 4b 3f
       0.033302918 0.17018211 0.70815814 0.79531884
000370 94 45 86 3b 0d 6d c8 bd c1 8b 1d 3e 38 d8 2d 3d
       0.00409765 -0.09786425 0.15385343 0.04244253
000380 59 fe 99 be 49 db 25 bd 38 59 3d bc b7 69 c6 3e
       -0.30076864 -0.04049233 -0.011556916 0.3875253
000390 fc 79 28 bd f4 cd 95 be 2b ee 8d 3d 47 94 8f 3c
       -0.04113196 -0.29258692 0.069301926 0.017526759
0003a0 d8 2a 3e bf de 67 72 3e c9 d4 be bd 5f c9 fa 3b
       -0.74284124 0.23672435 -0.09317929 0.0076534
0003b0 64 f0 98 40 ea b2 41 3e 36 2b 2b be 42 b9 d4 bf
       4.7793446 0.18915907 -0.16715702 -1.6619036
0003c0 70 54 e0 3d 38 a1 88 3e 0b 74 99 3d 67 33 37 bf
       0.10953605 0.266855 0.074928366 -0.7156281
0003d0 99 ee 92 3e 8d 88 7e 3e 67 64 5f 3e 82 75 20 bd
       0.2869766 0.24856777 0.21815644 -0.039174564
0003e0 31 eb 64 3f 94 71 70 3d 56 0e cd 3d 4a 8d 6d be
       0.89421374 0.058702067 0.100125 -0.23198429
0003f0 05 a1 22 3d 7a 61 bc be 04 cb 3d be e3 88 75 3f
       0.03970434 -0.3679312 -0.18534476 0.95912

MatMul_H1.bias f4 [50]
000000 db 95 63 bf b2 2f 99 bc 06 52 74 3e 23 25 1e 3f
       -0.88900536 -0.0186995 0.23859414 0.61775416
000010 1f 0b 89 be 41 c1 7d 3e 79 96 e2 3e 76 97 db bd
       -0.26766297 0.24780752 0.44255427 -0.10722248
000020 d9 b0 7b 3e 50 17 81 3e c0 c7 e7 3e 8f 14 67 bf
       0.24579181 0.252131 0.45269585 -0.90265745
000030 43 59 53 bf 4d 7a c8 bb eb 83 0f 3f d9 4f 90 bc
       -0.8255808 -0.006118095 0.56060666 -0.0176162
000040 12 2f 1c 3f 13 fc 98 bf fc 72 d3 be de c7 01 be
       0.61009324 -1.1951927 -0.41298664 -0.126739
000050 02 d4 3f bf d6 92 a1 3d 46 18 2b bd 4c 2c b7 be
       -0.74932873 0.07889335 -0.041771196 -0.35775983
000060 62 45 35 bf a0 f0 04 bc 2e 62 7f be 04 f5 d0 3e
       -0.70808995 -0.00811401 -0.24939796 0.40811932
000070 41 7d 70 bc cc 03 fd 3b e0 65 e4 be a6 41 76 bc
       -0.0146783 0.0077214 -0.44608974 -0.0150303
000080 de 2f 11 bc f2 16 7e bd 6c eb 20 3f 31 a3 76 bd
       -0.00886151 -0.0620336 0.62859225 -0.060214225
000090 f3 4c 79 bc 1a a9 64 3f 34 ff 05 3f 73 b3 23 3e
       -0.0152161 0.8932053 0.52342534 0.15986423
0000a0 e5 3b ce 3e 1e 74 32 bd b9 2f 91 bf bf aa d3 be
       0.4028007 -0.04356777 -1.1342689 -0.41341206
0000b0 d3 c3 13 3f d6 16 83 bc 22 13 a1 bd b4 63 1b 3f
       0.5772068 -0.0160021 -0.078649774 0.6069901
0000c0 db a7 0b 3f d9 d5 c9 bc
       0.54553 -0.024638103

MatMul_H2.weight f4 [50, 50]
000000 fe c0 89 3e 69 0f 25 3d b9 34 c7 3d e7 b1 a2 be
       0.26905054 0.0402979 0.09726853 -0.31776354
000010 39 00 6e 3e 9e 24 c0 3d 2e 2f 4f 3e e1 12 9f bf
       0.23242272 0.09381984 0.20232841 -1.2427636
000020 af 8e 1c 3f 4b c3 33 be 97 2c e4 3f 37 c1 30 3f
       0.6115522 -0.17554967 1.7826108 0.6904482
000030 51 6d d1 be af 1d 11 3f 09 e2 72 3f d3 a9 52 ba
       -0.40903714 0.5668592 0.9487615 -0.000803617
000040 46 df 5b be 0a 90 66 3e 33 10 49 40 a2 d9 90 bc
       -0.21471891 0.22515884 3.1416137 -0.0176819
000050 76 6f df 3f 43 3e 99 3e a6 f2 0a 3f 33 56 13 bf
       1.745589 0.29930314 0.542765 -0.57553405
000060 53 7d 9e 3e 4f 61 00 3d e5 63 a3 be aa d5 93 3e
       0.3095499 0.0313428 -0.3191215 0.2887395
000070 7e 39 13 bd bb 7d 3a 3f 09 57 1a bf 45 4b 19 bd
       -0.0359435 0.728481 -0.60289055 -0.0374253
000080 82 fe 22 bd ff 6c f5 ba 0d 85 a1 be cb 50 11 3f
       -0.0397935 -0.00187245 -0.31546822 0.56763905
000090 79 92 74 bc 0b e6 80 be 74 47 80 3f 8b 35 31 3d
       -0.0149275 -0.2517551 1.0021806 0.043263953
0000a0 47 e4 58 bf d9 b2 4f be 2d 9a 81 3f 2f 96 a5 bf
       -0.84723324 -0.20283069 1.0125176 -1.2936457
0000b0 15 e6 3b 3e 63 89 3d 3c e1 81 a5 be 33 3c 31 bf
       0.18349488 0.0115684 -0.32325652 -0.6923248
0000c0 ef 58 19 bf ca 4e 9a 3f e7 a0 13 3e 50 11 af ba
       -0.59901327 1.2055295 0.14416848 -0.00133566
0000d0 2e 11 86 3f 7d 76 df be da 54 0f be d7 16 7a 40
       1.0473993 -0.43645087 -0.13997212 3.907644
0000e0 07 3e 1a 3f 87 47 2b bf 44 cd 37 bf 63 70 bb 3d
       0.60250896 -0.6690602 -0.71797585 0.091522954
0000f0 c5 9f 3f 3f de eb ca 3e 8a 3e 89 be 87 c6 ea 3f
       0.74853164 0.39633077 -0.26805526 1.8341836
000100 7e af 3e be 9f 5c ae bc db fb 91 3e e9 bb ab 3e
       -0.18621632 -0.0212844 0.28512463 0.33541802
000110 20 97 52 3e 04 c7 69 3f b7 09 25 3e f2 19 14 3f
       0.20565462 0.913193 0.16116987 0.5785209
000120 53 f7 95 3e b4 69 94 be 23 33 23 be 95 8a ba 3b
       0.29290256 -0.28986895 -0.15937476 0.00569279
000130 ee c5 41 bf 1c a2 8e be af 34 1a 3d 7c eb 83 3f
       -0.7569264 -0.27858055 0.0376479 1.0306239
000140 29 0b 0b 3d cb d8 d0 bc 9c f5 2e 3d 09 6c ce bc
       0.03394619 -0.025494 0.0427147 -0.025198
000150 ca 4c 0b bf ca 68 e0 3e 69 82 f2 3c 33 08 b8 3e
       -0.54414046 0.43829948 0.0296032 0.35943756
000160 da 47 5d 3f b2 36 9c be 67 f7 62 bf fb ea 92 be
       0.8643776 -0.3051048 -0.88658756 -0.286949
000170 67 29 62 3f a6 09 17 40 44 f5 18 3e 84 88 2f 3c
       0.88344425 2.359964 0.14937311 0.0107137
000180 d7 9b 4e 3e 42 8f 1a 3f 93 f0 9f be 59 29 26 bf
       0.20176636 0.60374844 -0.3123823 -0.6490684
000190 b5 32 1e be ab 60 0f 3d 1e 70 82 bf a9 b4 6d 3d
       -0.1544903 0.0350043 -1.0190465 0.05803362
0001a0 92 f5 72 bd 95 8a 44 bf fc d9 cb 3e cb a7 4c 3f
       -0.059316225 -0.7677396 0.39814746 0.7994353
0001b0 8a fb 2d 3e e0 a5 e2 3e 79 2e ae 3e 9b af 0b be
       0.16990486 0.44267178 0.3401983 -0.13641207
0001c0 25 57 63 3e db 4d eb 3e 53 75 bf be ff 01 fb 3c
       0.22201212 0.45957837 -0.373942 0.0306406
0001d0 a0 00 50 3d d3 ae 56 3f 47 9e fc bd 16 dd fa 3e
       0.050781846 0.8386051 -0.123348765 0.489968
0001e0 da a7 8b be 87 01 dd be 7a 14 fb 3d 9f 72 4f bf
       -0.27276498 -0.43165228 0.12259765 -0.8103427
0001f0 48 cb f5 3e d7 25 14 3d 20 fd c2 3e 2b 09 f6 3e
       0.48006654 0.0361689 0.38083744 0.4805387
000200 a2 90 2e 3c 63 b4 9e bf ae 59 5d bf 36 f4 81 3b
       0.0106546 -1.23988 -0.86464965 0.00396588
000210 f4 6e 0c bd 5a bf 34 3d e7 cf 85 bf 5a 08 fa 3e
       -0.0342855 0.0441278 -1.0454072 0.48834497
000220 7f ba e8 3b 1d 27 20 bf e9 6b 4f 3f 82 48 4b 3f
       0.00710231 -0.6255968 0.8102403 0.79407513
000230 71 09 e5 bd 84 a4 d5 3e a3 9c ac 3e ae d8 f7 3f
       -0.111834414 0.41727078 0.33713254 1.9363
000240 f7 76 17 be dc 32 f9 3b de c1 03 3e e8 20 16 bf
       -0.14791475 0.00760494 0.12866923 -0.5864396
000250 16 8f 0e be 6e 7e b2 3e 98 f0 61 3c 85 b7 42 3d
       -0.1392177 0.34862083 0.013790272 0.0475383
000260 2a 11 7e 3b 18 aa a6 3e ca 42 03 bf 16 fa 4a 3d
       0.0038767555 0.32551646 -0.5127379 0.049554907
000270 2a a9 7b 3d e0 c4 19 bd 08 7f 84 3d 97 40 d2 bd
       0.061440624 -0.03754127 0.06469542 -0.10266226
000280 cf 34 84 bd a3 fb ac bf fd 93 e1 be fe eb 2b bd
       -0.06455385 -1.3514293 -0.4405822 -0.041973107
000290 ff 5e a8 3c 35 d7 44 bc 62 3e 9b 3e 1e c2 ac bf
       0.02055311 -0.0120142 0.30321032 -1.349674
0002a0 20 07 16 3d 55 a5 6d 3e 66 bf be bd 9d 41 63 3d
       0.03662789 0.232076 -0.0931385 0.055482496
0002b0 62 2f c2 3d 38 23 65 bd d9 61 2b be 13 8a 63 bc
       0.09481694 -0.05594179 -0.16736545 -0.0138879
0002c0 6a b8 78 bb 12 cb 98 3c 28 b6 02 3d a2 0a df bd
       -0.0037951716 0.018651519 0.031912 -0.108907
0002d0 cb 15 45 bd 49 0c a7 3c fe 8e b2 bc da 39 cd 3c
       -0.048116487 0.0203916 -0.0217967 0.025052
0002e0 ee d8 55 3d 3a 3f e2 3c a3 09 2f 3d 9c 8c 8d bb
       0.052208833 0.02761804 0.0427338 -0.0043197405
0002f0 63 ee 44 3e 9a 38 2c 3e 11 74 1a 3d 9f 32 63 bb
       0.19231562 0.16818467 0.037708346 -0.0034667624
000300 4e 60 39 bb 89 ce 22 be 20 26 dd be 01 ed b7 3b
       -0.0028286162 -0.158991 -0.4319315 0.00561297
000310 94 16 b0 3d 82 65 65 bc 1a a4 24 3d d5 b3 0a 3e
       0.085980564 -0.014001252 0.040195562 0.13545163
000320 42 42 9a 3e 0f 1e b7 bc b5 e5 92 be 72 ad 3c 3f
       0.30128676 -0.0223532 -0.28690878 0.73702157
000330 68 55 54 be 11 c8 99 3c 79 04 88 3e 02 48 82 be
       -0.20735705 0.018772157 0.26565912 -0.25445563
000340 e8 3c e0 3e 41 3a 24 3e 30 4a 10 3f ca 8e 98 3f
       0.43796468 0.16037847 0.563632 1.1918576
000350 0f e4 82 3f 7b f8 2d 3d c8 e3 f3 bc dc 36 c2 3c
       1.0225848 0.042473298 -0.0297717 0.0237078
000360 b2 da 11 bf 6d b2 01 40 78 15 f0 be 85 b5 45 bf
       -0.5697433 2.0265152 -0.4689138 -0.772301
000370 c7 c4 38 3e 27 68 a4 bd 6e d4 1a 3e fd 59 8a be
       0.18043815 -0.08027678 0.15120098 -0.2702178
000380 51 1e 7c bd 64 81 06 3c 1a d0 c5 bd f2 4e 43 3e
       -0.06155235 0.00820956 -0.09658833 0.19073084
000390 0b 3f 9b 3b dc f6 74 bf 6f b7 84 3e 7a 35 9f 3b
       0.00473774 -0.9568918 0.259212 0.00485867
0003a0 64 25 21 3d fe 93 44 3d 01 62 16 be 31 e3 e1 3e
       0.0393423 0.0479927 -0.14685823 0.44118646
0003b0 d6 eb 4c bc 58 ed 2d bc fa c4 31 be 26 08 c5 3e
       -0.0125074 -0.010615669 -0.17360297 0.3848278
0003c0 96 97 66 be 78 58 8c be 41 eb 11 3f f4 c1 14 be
       -0.22518763 -0.27411246 0.56999594 -0.14527112
0003d0 29 70 30 3f 9a 0b b7 3c 6c f1 d3 be 72 ce 80 3e
       0.6892114 0.0223444 -0.41395128 0.25157505
0003e0 fd 0b 56 be 36 ab 10 3e 16 c1 db 3f a1 d7 80 b7
       -0.2090301 0.14127812 1.71683 -1.53592e-05
0003f0 c4 ee 4b bf ce 12 19 3f d8 44 98 be 42 21 99 c0
       -0.796612 0.5979432 -0.29740024 -4.78531

MatMul_H2.bias f4 [50]
000000 10 ed 28 bf 3a f4 22 bf d7 ec c6 bf 94 ab 51 3f
       -0.6598673 -0.6365391 -1.5541028 0.8190243
000010 1c 5a 81 3e 81 9f 06 be f0 2c d5 bd 2c 2d a3 be
       0.2526406 -0.13146783 -0.10408962 -0.318704
000020 29 8d 85 be e4 01 5d 3e 70 f6 ae bf 36 ec d2 bc
       -0.2608426 0.21582752 -1.3668957 -0.0257474
000030 f6 43 27 3f b1 01 98 be 09 36 05 bf c9 2a 5a bf
       0.65338075 -0.2968879 -0.52035576 -0.85221535
000040 5b f1 6c 3e bf b4 aa 3e 18 ce 88 bf b5 8c ba 3e
       0.23138945 0.33341023 -1.0687895 0.36435476
000050 e7 fc 94 bc 2a 5c 38 c0 48 08 16 be 6f 2e 66 bd
       -0.018187 -2.8806252 -0.14651597 -0.056196626
000060 ee 2b df be 73 dc 0a 3f 60 7a bf 3e d6 b2 44 3d
       -0.43588203 0.5424263 0.37398052 0.048022114
000070 ee 84 34 bd b2 cc 10 bf 77 1d 37 be a8 0a a7 bd
       -0.044072084 -0.5656234 -0.17882334 -0.081563294
000080 60 bc 4e 3e e5 89 94 bf 63 64 61 bf 3e 29 81 bf
       0.20189047 -1.1604582 -0.880438 -1.0090711
000090 89 88 84 be a1 1c ec 3e ce 9c 46 3e f5 f1 06 3d
       -0.25885418 0.46115592 0.19395754 0.032945592
0000a0 4d 88 a5 bd b9 2b 96 3e bf 4e 63 bf d7 85 a0 bf
       -0.08082638 0.29330233 -0.8879203 -1.2540845
0000b0 76 0e 0f bd 58 b9 5d bf 61 ea 24 bf c3 01 56 be
       -0.0349259 -0.8661094 -0.64420134 -0.2089911
0000c0 11 53 f0 be 64 d3 80 3e
       -0.46938375 0.25161278

MatMul_H3.weight f4 [50, 50]
000000 97 83 53 be 75 d9 d2 be c7 c5 0b 3f 73 d8 e3 be
       -0.20655666 -0.41181532 0.5459866 -0.44501075
000010 f5 40 5c 3e 0e a3 90 3e 56 c2 04 3f a6 5c 0d bf
       0.21509154 0.282494 0.51859033 -0.55219495
000020 2b 61 3d 3f 8c 73 a7 bd 70 19 fc be 38 f7 17 bd
       0.7397639 -0.08176336 -0.49238157 -0.037101
000030 35 be ff 3e d7 d0 0a 3f f8 22 62 3d 8a 76 6d bf
       0.49949804 0.54224914 0.05520913 -0.92759
000040 b3 91 3d bd 49 86 83 bd 92 36 9b 3f 38 0d 5b 3e
       -0.046281528 -0.06422097 1.2126029 0.21391761
000050 ca f7 f1 bc b0 38 a9 3d e5 52 c2 3f e4 8d 3a bf
       -0.0295371 0.082627654 1.5181547 -0.7287276
000060 af ab 75 3e 52 47 10 3f 72 a7 77 3e dd 7a b9 3f
       0.23991273 0.56358826 0.24184969 1.449062
000070 64 de d1 3b bf d5 28 3f ba be 22 bf 71 bb 5e bf
       0.006404685 0.6595115 -0.63572276 -0.8700476
000080 06 4d 0b bf 03 a0 4a bf 39 b7 e9 be 26 39 82 3e
       -0.54414403 -0.7915041 -0.456476 0.25434226
000090 9b 8b 82 bd 3e 02 e9 3e 60 f9 d8 be 07 3b f1 be
       -0.06374284 0.45509523 -0.42377758 -0.47115347
0000a0 5b ba b6 bd e7 70 c1 be 9a 1e 73 bd f4 9c ce be
       -0.08922263 -0.3778145 -0.059355356 -0.4035412
0000b0 e9 bf 22 bd f8 db 9a 3d f3 d2 98 3d 6f 30 09 3f
       -0.0397338 0.07561487 0.0746211 0.5358953
0000c0 3a 0f 2c be 77 32 11 3e d5 29 62 3f cc 42 9e bf
       -0.16802683 0.14179407 0.8834508 -1.2364135
0000d0 8f a7 49 3f 5f c3 77 c0 67 56 b1 bd d3 3c 3f 3e
       0.787713 -3.8712995 -0.08659058 0.18675546
0000e0 60 b2 c1 bf 7b ff 14 bf d4 9f a2 3e 1e cc 27 3e
       -1.5132561 -0.5820233 0.31762564 0.16386458
0000f0 2e 56 6d 3f a8 f1 de 3b c8 57 0e be 06 e9 aa be
       0.92709625 0.00680371 -0.13900673 -0.33380908
000100 d4 05 f9 3e f6 02 f9 3e e4 a3 3d 3d 74 bd 3a bf
       0.4863726 0.48635072 0.046298876 -0.7294533
000110 4c 08 df bd 79 32 98 be 37 2b ec bc 3b c9 10 bf
       -0.108902544 -0.29726008 -0.0288292 -0.56557053
000120 79 9b 49 c0 4c ed 04 be 5c 0e 87 3e f4 81 19 bf
       -3.1501143 -0.12981147 0.26378143 -0.5996392
000130 16 eb 7c bf 1a 63 9f bd 86 58 05 3f a5 cf a8 be
       -0.9879621 -0.07782574 0.520882 -0.3297092
000140 4d fd 00 be 05 74 11 3f 49 c0 83 3d 90 0c 13 bf
       -0.12596627 0.56817657 0.0643316 -0.57441044
000150 fb 78 78 be d3 40 5e 3d c9 43 e5 3e 34 b2 15 3f
       -0.242649 0.05426104 0.44778278 0.5847504
000160 cd 13 6c be 85 f3 82 3e 57 b4 c2 3d a4 f8 24 bf
       -0.23054428 0.25576416 0.09507053 -0.64441895
000170 6a e2 f2 3e c0 32 36 3e 13 0d 90 3b 2b d1 f1 be
       0.47438365 0.17792797 0.00439609 -0.47229895
000180 ab 3a 1c be 05 38 01 be 3c 8a b9 be 29 47 05 be
       -0.15256755 -0.12619026 -0.36238277 -0.13015427
000190 11 da 59 be f6 cf c6 be ae 6b d3 3e eb fc 10 bf
       -0.21274592 -0.38830537 0.4129309 -0.5663592
0001a0 ad 6a 11 bf b7 26 e5 3e ac 6b 53 be 82 f5 92 3e
       -0.568034 0.447561 -0.20646542 0.28702933
0001b0 14 ee 94 3e 93 27 c2 bd 84 5c 66 3e 88 fd 94 bc
       0.2908789 -0.094802044 0.2249623 -0.0181873
0001c0 50 f5 12 3f 46 04 55 3e d8 2c 18 3d 1d 03 56 bf
       0.5740557 0.20802411 0.03715214 -0.835985
0001d0 32 0e 1b be ea 2a 0e 3e 33 ba 1b c0 9f 54 01 3d
       -0.15142134 0.13883558 -2.4332397 0.03157484
0001e0 eb 7a 3d 3d 16 3d 1c 3d 7a 16 6f 3f 4c 88 bd bd
       0.0462598 0.038144194 0.9339367 -0.09254512
0001f0 a0 cb f9 be a6 46 43 3e 18 ef 31 bd e9 32 04 bf
       -0.48788166 0.19069919 -0.04344091 -0.5164018
000200 f1 89 f2 3d 9c 51 4d 3f fc 0a 2d 3d 51 ba 9f be
       0.118427165 0.8020265 0.042246804 -0.31196836
000210 c2 dc b1 3e bc 9c 00 be 72 ba 91 bd 48 88 8a be
       0.34738737 -0.1255979 -0.0711564 -0.270571
000220 27 e2 37 3f 5b a6 2d 3d 72 b2 91 3e a4 66 9a bd
       0.71829456 0.042394977 0.28456455 -0.075391084
000230 bb 0b e2 bc 89 41 4b 3f 8e 66 be be 93 67 a4 3c
       -0.027593484 0.79396874 -0.37187618 0.02006892
000240 4b fc 76 3c 52 c3 11 3e 23 a9 72 3e 70 e2 36 3d
       0.0150748 0.14234665 0.23697333 0.04464954
000250 70 c9 c3 3e c2 9f d7 bd 66 04 1b be 6e 5f 2d be
       0.38239622 -0.10528518 -0.15138397 -0.16930935
000260 e2 64 4e 3e a6 bb 3b 3f 68 7f 74 3e 1d e4 67 bf
       0.20155671 0.73333204 0.23876727 -0.9058245
000270 50 9a d8 3d 5c a5 67 3e 0b ab f4 bd 6f de 0a be
       0.10576308 0.22621673 -0.11946686 -0.13561414
000280 0c e0 18 bf 7e 58 ca 3c ef be 97 be 1a 46 24 3e
       -0.5971687 0.0247004 -0.29637858 0.16042367
000290 d9 c0 28 3f 64 26 41 bf 14 06 92 3e e0 5d 55 be
       0.6591926 -0.75449204 0.28520262 -0.20836592
0002a0 29 23 92 bc df 81 7f 3e 06 64 ef bc e1 b4 99 be
       -0.017839031 0.24951886 -0.0292225 -0.30020812
0002b0 29 0b 6e 3e 0d ed 27 3e 78 20 f8 bd 77 b0 ec 3e
       0.23246445 0.16399021 -0.12115568 0.46228382
0002c0 98 1a 8a be 7e 87 aa 3f 1f d2 16 3e e7 37 a8 3e
       -0.26973414 1.3322599 0.14728592 0.3285515
0002d0 72 00 b0 bd d9 a9 94 be cf f0 a0 bd 29 f6 3e 3f
       -0.08593835 -0.29035833 -0.078584306 0.7459436
0002e0 14 6a bc 3c bf 9e 19 3e e2 77 60 3d b5 99 36 3e
       0.0229998 0.15001963 0.05480183 0.17832072
0002f0 03 61 00 be c7 ac 8c be 1e f7 8f bd cf ed f9 be
       -0.12537007 -0.2747557 -0.07029556 -0.48814246
000300 83 5d a1 be f1 f9 04 bc d1 e3 1c 3b 7c af 91 bd
       -0.31516656 -0.008116231 0.00239395 -0.07113549
000310 b0 2a 44 3f 81 c6 16 3f e5 0d 46 bf d4 36 a8 3d
       0.76627636 0.5889664 -0.7736495 0.08213583
000320 8a b5 b8 bd 13 a8 a7 3d b7 a8 ee bd 8d ef d2 bf
       -0.09019001 0.081863545 -0.116532736 -1.6479355
000330 1a 0a a6 3d 99 2f 1e 3c 9f 8c 26 3e 11 b9 7e 3d
       0.081073955 0.009654903 0.1626458 0.06218821
000340 bd 9e 8c be 2f 3a c8 3c cb ac 74 bd c7 81 57 bc
       -0.27464858 0.024441807 -0.0597351 -0.0131535
000350 c2 3f f8 3d c0 69 f2 3d ed 5f a7 3d cc 62 40 bc
       0.12121536 0.118365765 0.08172593 -0.011742305
000360 c0 8c 28 3e 58 22 d3 3c 15 b9 16 bd 1d 5a 3d bd
       0.16459942 0.025773212 -0.0367976 -0.046228517
000370 79 c4 ae 3b c3 92 e9 3d 1e 3c 86 3e f9 96 03 3f
       0.00533348 0.11404946 0.2621774 0.5140224
000380 a3 f9 d0 bc 1f 58 8c be ed df a1 3c 74 44 ae be
       -0.025509661 -0.2741098 0.019760096 -0.340366
000390 2e 81 e3 3d b5 0d 45 3d 5a 2b 2e bd 36 33 3f bc
       0.111086234 0.048108775 -0.042521812 -0.0116699245
0003a0 05 d0 69 bd 3b 3e 8d 3d 47 a8 be bd 87 47 16 be
       -0.05708315 0.06896635 -0.0930944 -0.14675723
0003b0 84 e0 0c be e0 60 97 3d 41 cc bd 3d ee 8d dd 3e
       -0.13757521 0.07391524 0.09267474 0.43272346
0003c0 fe 92 08 be 86 31 77 3e 09 f0 01 be 51 57 00 3e
       -0.13337323 0.24139985 -0.12689222 0.12533309
0003d0 c5 e8 14 3d d4 29 76 3e 3a 62 de bc 5c 9e 41 bd
       0.0363548 0.24039394 -0.027146447 -0.047270164
0003e0 61 2e ae 3e e9 e9 4f bc 5e 1e 2d 3f f9 e4 0b bf
       0.3401976 -0.012690046 0.6762446 -0.5464626
0003f0 f0 92 d4 3e 97 66 1a bf 4b 1c 9f be 10 12 f5 3e
       0.41518354 -0.6031279 -0.31076273 0.47865343

MatMul_H3.bias f4 [50]
000000 13 40 be bd 09 fa 17 bf 1a 02 0a 3f 0f 76 8b bf
       -0.09289565 -0.593659 0.53909457 -1.0895404
000010 4f f3 d7 bd 7a 35 2e bf d4 70 5b 3c bb 49 a3 be
       -0.10544454 -0.6805035 0.0133936 -0.3189219
000020 9f 6c 9d be fc 5d 0a be 26 67 80 3f 97 8d 9d bc
       -0.30746934 -0.13512415 1.0031478 -0.019232554
000030 c6 33 84 bf 69 cd 1a be a9 40 8f 3f e5 dd 0c bf
       -1.03283 -0.1511742 1.1191608 -0.55026084
000040 77 3f d5 3f f2 5a 9e bf fb ce 3b 3f 93 21 4d 3f
       1.6659993 -1.2371504 0.733627 0.80129355
000050 c0 71 b1 3e bf 4b c1 bc db 8e b0 be 52 61 2c be
       0.34657097 -0.023595689 -0.3448399 -0.16834
000060 c5 86 20 bc 7f 45 a5 3f db fd 19 3f f6 3a 8f 3b
       -0.009797757 1.2911834 0.6015298 0.0043710424
000070 3a 32 e1 3f dd d3 8b 3d e9 6b 92 bf 86 f6 5b bf
       1.7593453 0.06827519 -1.1439182 -0.8592304
000080 5d 0e c1 bf cd 9a 6f 3f 7e c3 06 bc 5c 0d 72 bf
       -1.5082508 0.9359558 -0.00822532 -0.94551635
000090 4c b8 70 be 90 4d 04 c0 4c 7b 13 3f a2 83 21 3e
       -0.23507804 -2.067234 0.5761001 0.1577287
0000a0 98 10 99 bf d2 61 4c be 73 e8 05 bf 24 ba b2 bf
       -1.1958189 -0.1995919 -0.52307814 -1.3963056
0000b0 a9 24 4b bf 8f ca 9f 3d 7c 98 04 3f 33 e0 a9 3f
       -0.79352814 0.07802307 0.5179517 1.3271545
0000c0 ed f9 bd 3e 45 a9 cc 3d
       0.3710474 0.09993223

MatMul_H4.weight f4 [50, 50]
000000 38 a7 6e 3d 5b c8 ae 3d 1a 50 b1 3d e3 0e b7 3e
       0.05826494 0.085343085 0.08657856 0.35753545
000010 4f 31 23 3f b5 5e 13 be d7 51 ad bf 88 5c 7e bc
       0.63747114 -0.14391597 -1.35406 -0.015524991
000020 25 af e0 bd e6 d3 9c bd 27 39 6d bd 8a 6e 69 3e
       -0.10970906 -0.07657604 -0.057915833 0.22796074
000030 2f f7 c9 3e 76 81 bd 3e 3f 2e 39 3e 5b 4a b4 be
       0.394464 0.37012833 0.18084048 -0.3521298
000040 bb ed 97 bd fb 4d b8 3d ff 7e 8a 3e 0c 7a 84 be
       -0.0741839 0.089992486 0.27050015 -0.25874364
000050 77 37 8b 3e 9e c7 24 3e 73 8b 5f bd dd 7e 94 bc
       0.27190754 0.16091773 -0.05457635 -0.0181269
000060 83 e6 1d be ef 4d 1d be d0 0e 03 3d 35 d1 a1 bc
       -0.15419964 -0.1536176 0.03199655 -0.019753078
000070 48 ec 13 be 65 90 c6 3d 3f 8c 26 3e 25 55 f0 3d
       -0.14445603 0.0969551 0.16264437 0.1173499
000080 66 42 d8 3d 29 8a 6c bd a9 21 20 bd 9e b4 3f 3e
       0.105595395 -0.057748947 -0.0390946 0.18721244
000090 fb 9e 84 3e 8e 76 0e be 73 0d f8 3d 7f 3b 6d bd
       0.25902542 -0.13912413 0.1211194 -0.057918068
0000a0 1c 3d e4 3d 48 ca 71 bc 70 fe 31 3d 67 7b 6e bd
       0.11144468 -0.0147577 0.04345554 -0.058223154
0000b0 07 b1 a3 3e ed 13 43 3c dd 35 d4 3d d5 63 b2 be
       0.31971 0.011906606 0.10361836 -0.3484179
0000c0 24 7e b5 3d 2d f9 ff 3d 4c da 17 3c 19 59 12 be
       0.0886195 0.124986984 0.009268355 -0.142918
0000d0 c7 ee 10 3e 21 6c df bd a1 62 3d bf 9f 71 2e 3f
       0.14153586 -0.10909296 -0.7397862 0.6814212
0000e0 a5 ae 2b 3d aa 74 80 be e6 c7 89 3d ea 9c 04 be
       0.0419146 -0.25089008 0.06727581 -0.12950483
0000f0 7f c1 9e bf d9 3c 73 bf ad f9 1d 3f d3 af 61 be
       -1.24028 -0.9501472 0.617091 -0.22039728
000100 4c 9f 98 3e cc d7 71 3f ce c2 22 bf d2 83 f3 be
       0.29809034 0.94469905 -0.635785 -0.47561508
000110 14 2f b0 be 32 b0 b9 3e 0b c7 1b 3f de e4 88 3e
       -0.34410918 0.3626724 0.6085059 0.26737112
000120 49 f2 cb 3d 97 57 0e 3e 55 21 35 3f b6 be 1c bf
       0.099583216 0.139006 0.70753986 -0.612285
000130 f0 30 53 3d fa 89 19 be a8 77 4c 3e 12 01 9d 3d
       0.051560342 -0.1499404 0.1996752 0.0766622
000140 7d 10 93 be 2f 5c e6 bd fc 81 83 bd b1 b2 17 bd
       -0.28723517 -0.112480514 -0.06421277 -0.037035648
000150 87 3e af bb ef a3 03 bf 69 09 23 bf 5b 42 3e be
       -0.00534803 -0.5142202 -0.63686234 -0.1858
000160 48 0b ff be f8 01 b3 bd 3d 61 95 3f fc 78 97 be
       -0.49813294 -0.0874061 1.16703 -0.2958449
000170 36 e4 85 3e ca de 32 be 0e 33 47 bf 6c ba 71 bd
       0.26150674 -0.174678 -0.7781228 -0.059015676
000180 ab 93 dc 3d 40 f7 a5 be 6e c8 2d 3d b9 dc 3f 3c
       0.10770353 -0.324152 0.042427473 0.011710339
000190 ca ae 48 be a1 cd 0b bd f2 8c 8a be 30 82 49 be
       -0.19597927 -0.03413165 -0.27060658 -0.19678569
0001a0 e2 b3 07 bf 87 5a 88 be 35 60 1c bf a7 58 85 bf
       -0.53008854 -0.26631567 -0.610843 -1.041768
0001b0 dc 9c 2b 3f 31 a1 32 bf eb a2 a5 be 02 ed 04 bf
       0.67036223 -0.6977721 -0.3235086 -0.51924145
0001c0 cf e6 67 3d 3b bd 72 3e f5 44 d0 3d e5 e0 68 3d
       0.0566166 0.23704998 0.101694025 0.0568551
0001d0 1b ca 3f bf 9e 45 33 3f eb c5 6e 3e 45 e2 3d 3e
       -0.74917763 0.700281 0.23317687 0.18543346
0001e0 9f 3e e3 3e 60 a8 3c bf 75 83 91 3e 5d a5 3f bf
       0.44383714 -0.7369442 0.28420606 -0.748617
0001f0 9b 9e 95 bf 14 5f 0b be 5b 1a a7 bf 97 87 e2 bb
       -1.1689028 -0.13610488 -1.3054918 -0.006913136
000200 ea 67 30 bf c0 cd 32 3e 36 b8 00 3e 05 79 51 3e
       -0.6890856 0.174613 0.12570271 0.20456322
000210 28 87 f5 3e a5 db 20 3e 6a 39 69 3b 98 e3 b0 be
       0.4795468 0.15708788 0.00355872 -0.3454864
000220 67 1b cc 3d 05 b3 56 3e fd 63 38 3e d8 d9 a5 be
       0.09966164 0.20966728 0.18006893 -0.32392764
000230 56 51 85 be 01 30 4e bf 28 f1 3c 3f 60 62 cf bb
       -0.26038617 -0.80542 0.73805475 -0.006328866
000240 27 b7 44 3f ab 35 c4 3c 67 a6 79 bd 38 8c 2a be
       0.7684197 0.023951372 -0.06094971 -0.16655052
000250 66 6d e9 be 77 49 33 be 17 3c 3f bc 60 c1 78 be
       -0.45591277 -0.17508493 -0.011672041 -0.24292517
000260 8b 56 bd 3e fb 5f 58 3e e8 4a 8c be f4 42 3f bf
       0.3698009 0.21130364 -0.274009 -0.7471154
000270 f0 fd 31 bf 79 b1 85 be cd fd 08 3e 83 8c 33 be
       -0.695281 -0.26111963 0.13378067 -0.1753407
000280 64 e7 72 bf cf 26 6a bd e8 11 8b be 0a 9f e2 3e
       -0.94884324 -0.057165917 -0.271621 0.44261962
000290 95 51 ed 3e 77 a4 7a bf c0 c5 c0 be 95 0d c8 3e
       0.46351305 -0.97907203 -0.3765087 0.39072862
0002a0 a1 40 9f 3f fb 93 9f 3e 1b 57 18 3f c6 f3 58 be
       1.2441598 0.31167588 0.5950791 -0.21186742
0002b0 20 6c 58 3e 4c 36 ae be b8 22 86 bf ce e8 af be
       0.21134996 -0.340258 -1.0479345 -0.34357303
0002c0 f1 e9 49 bf 8a 76 89 bd 96 9a f8 be ab ce a2 be
       -0.7887259 -0.06712063 -0.4855544 -0.317983
0002d0 24 39 6e 3e 75 d7 d7 3e 66 5f f2 3e d0 6c aa be
       0.23263985 0.42156568 0.47338408 -0.33286142
0002e0 ef b6 41 3d 4a a8 44 3d fa cd c9 3e 54 7a 21 bd
       0.0472936 0.048012055 0.3941496 -0.0394233
0002f0 6b 94 de 3e 47 d0 05 bf 58 4c 16 bf 7c f2 5c bf
       0.4347261 -0.5227093 -0.5871024 -0.863075
000300 a6 9b 0e 3e d6 42 31 3d f6 92 73 be 5c 94 c6 3c
       0.13926563 0.04327663 -0.2378653 0.024240665
000310 90 77 98 3c 4a 58 09 be e6 3f e1 c0 ea d1 15 3e
       0.0186117 -0.13412586 -7.03905 0.14630857
000320 e4 a4 52 bd 1d b3 0f 3e 5b 8a c8 bc 87 16 72 3e
       -0.051426783 0.1403317 -0.024480036 0.23641406
000330 89 d2 64 3f df d5 99 bc 15 8c 1a 3e db d8 c6 bd
       0.8938375 -0.01877874 0.150925 -0.09709331
000340 ca 19 b8 bd c3 29 97 3d 98 6b 88 3b 59 80 1d 3d
       -0.08989294 0.07381012 0.004163217 0.03845248
000350 d5 1e 1b 3d 99 c1 0e 3e b8 aa fa 3d 07 81 e9 3c
       0.0378712 0.13941039 0.12239593 0.028503908
000360 c1 05 56 bd ad 3e a1 3d c5 2a 9b be 40 eb 91 bd
       -0.05225158 0.078732826 -0.30306068 -0.071249485
000370 83 5a 29 3e 8c 14 3f 3e f2 bf 92 bb 91 c1 02 3a
       0.16538434 0.18660182 -0.004478448 0.000498795
000380 27 dc 27 be 8e 22 ec bd c1 1b 04 be be 4e 3f bd
       -0.16392575 -0.11530028 -0.12901212 -0.046705954
000390 a7 64 80 bd 75 36 00 be 69 9c 7a 3d 6e 2c 2a 3d
       -0.06269198 -0.12520774 0.06118432 0.041546278
0003a0 a0 4a f1 3d b3 4f 91 bc 53 c5 de bc 23 f2 9d bd
       0.11781812 -0.017738199 -0.0271937 -0.077121995
0003b0 6f f3 7f bc a8 58 83 3d 37 3b 0c 3d 27 b9 d1 bc
       -0.015622004 0.06413394 0.03423616 -0.025600983
0003c0 14 65 c4 3d e8 7d 08 bd 4e 27 81 3e 0b a0 73 bc
       0.095895916 -0.0333232 0.252253 -0.0148697
0003d0 55 e8 41 bb be b1 1e 3d c4 76 94 3e f2 4a 27 3d
       -0.0029587944 0.038743727 0.2899686 0.040842958
0003e0 d4 ee 80 be 2f f3 54 3e 7b a9 c7 bc 73 c7 10 be
       -0.2518221 0.20795892 -0.024372807 -0.14138584
0003f0 a0 c8 69 3d 35 9c 63 3d a4 2e 17 bf 4b 2e 46 be
       0.057076097 0.055568893 -0.5905554 -0.19353597

MatMul_H4.bias f4 [50]
000000 e1 46 62 bf ec 25 a7 3d 4e 39 94 3f 58 8d 99 be
       -0.883894 0.0816153 1.1579988 -0.2999065
000010 24 ba cb bd 24 eb c2 3e 07 59 99 3b 05 88 5d 3f
       -0.09947613 0.38070023 0.0046798023 0.86535674
000020 a8 16 6a 3e 21 2f 0a 3f d6 f2 9b be 86 f1 6d 3f
       0.22860205 0.53978163 -0.30458707 0.9294666
000030 d3 ca c2 3f cd c3 bc 3e e0 bd da bf f0 a4 df 3e
       1.5218147 0.36868134 -1.7089195 0.43680525
000040 c3 13 53 be 39 99 87 3e 88 a7 33 be 55 b6 35 3e
       -0.20613007 0.26484087 -0.17544377 0.17745335
000050 5f 87 07 40 23 4a bb bd 25 a5 24 3f 80 19 cd be
       2.1176374 -0.09145 0.6431449 -0.40058517
000060 90 40 b2 3c 92 fd 1d bd 33 31 3c be 49 29 b2 3e
       0.021759301 -0.0385719 -0.18378143 0.34797123
000070 e9 05 ee be c6 8b 11 3f 2a e3 38 c0 d1 dc 08 3f
       -0.46488884 0.568539 -2.888865 0.5346194
000080 a6 f9 4f 3f 31 2d 5e bf 57 98 5d 3f 28 f7 97 bf
       0.8124031 -0.86787707 0.8656058 -1.1872301
000090 ee 2e 04 bf 29 4c 36 3f f8 f0 0f bf bb 82 77 3e
       -0.5163411 0.7120996 -0.56227064 0.24170963
0000a0 4a 82 bd be d5 82 79 bd 4e b5 f0 3e b0 16 ba 3d
       -0.37013465 -0.060915787 0.47013324 0.090863585
0000b0 24 33 f5 bf 09 38 a7 bf fd 9b 50 3e 95 49 7d be
       -1.9156232 -1.3063976 0.20372005 -0.247351
0000c0 18 a1 99 3e be 77 b2 3d
       0.30005717 0.08714245

MatMul_H5.weight f4 [50, 50]
000000 f6 74 fe 3e 2e 30 55 3d 04 58 0c bf cf f7 e3 bf
       0.4969861 0.0520479 -0.548218 -1.781
000010 89 11 c3 bc 2b df 2f 3f 6a 68 0a be 84 dd e8 bd
       -0.023812072 0.686999 -0.13516393 -0.11370376
000020 56 82 ed bf 14 ab bb bd 29 d7 2f 3f c8 b5 9d 3f
       -1.85554 -0.0916349 0.68687683 1.23211
000030 8d ec 0f 3d a0 fd 08 3e f4 72 1f be 82 ad 86 bf
       0.0351377 0.13378 -0.15571195 -1.05217
000040 12 7e 0e bf 02 83 30 bf 2f 6d 08 3e 3d d6 ac 3e
       -0.5566112 -0.689499 0.133229 0.337572
000050 e7 35 26 be f2 e8 0a 3e d5 a6 2d 3f a3 d9 0d bf
       -0.162315 0.13565424 0.6783269 -0.5541021
000060 65 e0 b8 3e f7 b8 25 bc 86 3f be 3c 90 be 91 be
       0.361087 -0.0101149 0.02322365 -0.284657
000070 21 1f a4 be a1 e8 4b bc 90 9e 12 3e 19 3a 16 3e
       -0.32055 -0.0124456 0.143183 0.146706
000080 6c 6e a6 3d da a6 b8 bc 54 8c 0f bf a6 69 d8 3d
       0.0812653 -0.022540499 -0.560735 0.10567026
000090 58 26 9b be 63 b8 c7 3d 01 52 96 bd 7b f8 ca be
       -0.3030269 0.09751966 -0.0733986 -0.396427
0000a0 a7 79 bb bf f8 5d b7 3d f8 c4 aa 3e 41 83 3d 3e
       -1.46465 0.0895347 0.333534 0.185071
0000b0 53 8d 79 bd 87 bf 96 bf 12 be cf be b0 3d d3 bf
       -0.060925793 -1.17772 -0.405747 -1.65032
0000c0 b8 1e 15 3f 83 a2 b9 3a 12 4f a6 3e a4 88 c4 bf
       0.5825 0.0014162812 0.324822 -1.53542
0000d0 9c 4b 2e bf 5a 7f 9e bd 70 0d 54 3b 41 5d 45 c0
       -0.6808412 -0.07739134 0.0032356642 -3.0838168
0000e0 a2 11 8c 3e e0 eb ec bf 75 f5 50 3f 96 c1 72 be
       0.27357203 -1.8509483 0.8162454 -0.2370666
0000f0 c6 55 df 3e 46 fb 46 3f 34 12 01 be ca 18 33 bf
       0.43620127 0.7772716 -0.126046 -0.699597
000100 85 76 c4 bd e1 8f ae 3d 4a 65 96 3f da c9 f0 3f
       -0.09592918 0.085235365 1.1749661 1.88116
000110 9a 7e 86 bf f0 87 d7 be 04 e7 90 bf 17 1f 22 bf
       -1.0507386 -0.420959 -1.13205 -0.6332869
000120 e9 46 70 3f 37 a0 c7 bd 10 7a b6 be 35 e5 54 bc
       0.938582 -0.097473554 -0.3564 -0.0129941
000130 6f f6 4b bf a6 f4 c5 3e 0e df e9 3f 47 e2 0a bd
       -0.796729 0.38663214 1.8271196 -0.0339072
000140 b3 d0 3e be f5 db bf bf 69 24 56 3e 6d 01 41 bf
       -0.186343 -1.4989 0.20912327 -0.753928
000150 4b ac 28 bf ff 16 48 bf 2c e4 19 3f 62 a7 a6 3e
       -0.658879 -0.7816009 0.6011379 0.32549578
000160 bc 91 2b c0 76 13 1d 40 89 7e e3 bf 51 19 1d bf
       -2.68077 2.4543128 -1.777299 -0.61366755
000170 ed bb f6 3f 33 86 87 be 03 09 32 c1 03 6b 30 3f
       1.92761 -0.26469573 -11.1272 0.68913287
000180 dd 22 18 c0 ac 53 55 be 04 3c 35 3f 06 f2 c3 be
       -2.377128 -0.208327 0.707947 -0.38270587
000190 11 37 d7 be 3e cb d3 bd 38 b2 3c bd 16 a9 4b bd
       -0.420342 -0.103415 -0.0460684 -0.0497218
0001a0 53 03 1d 3e df 8a 24 bd 7c 48 f8 3c 36 03 dc bd
       0.153333 -0.0401715 0.030308 -0.107428
0001b0 80 65 dd bf 2b f9 58 bf f2 98 31 3e 84 bc 4a bf
       -1.72966 -0.847552 0.173435 -0.791939
0001c0 89 a6 bd bc 53 f7 b7 3b 7d cb 16 c0 2b 13 12 c0
       -0.0231507 0.0056142 -2.35617 -2.28242
0001d0 f8 8d b7 3e 21 22 41 bf 56 ef 88 be 02 8b 92 bd
       0.358505 -0.754427 -0.267451 -0.0715542
0001e0 17 2c 55 be 58 54 e4 3d cb 82 71 bf cf 3d 7a bd
       -0.208176 0.111489 -0.943402 -0.0610941
0001f0 25 ad 18 3e a3 b6 c7 3b 0e 83 d9 3d 32 05 37 bf
       0.149098 0.00609477 0.106207 -0.714923
000200 a3 40 57 bf 6d fe 9f 3c 6a 08 18 3d f9 4f 92 bc
       -0.84083 0.0195305 0.0371174 -0.0178604
000210 15 52 4c c0 7d 4d 45 3d 58 00 f3 be d4 b6 61 be
       -3.19251 0.0481696 -0.474612 -0.220424
000220 57 cf ad c0 3f 52 d0 bf f7 9e 80 bc ab fe 32 bd
       -5.43156 -1.62751 -0.0157008 -0.0436999
000230 01 19 da bd 9d 9d 3c be 2b 22 79 bc 00 23 63 bd
       -0.106493 -0.184195 -0.0152059 -0.0554533
000240 8b 56 a9 bd 28 49 c3 bf a5 be ac 3c 3e 19 ed 3c
       -0.0826846 -1.52567 0.021087 0.0289427
000250 b7 08 94 be 6e 33 f5 be de b6 4b 3e 22 48 01 c1
       -0.289129 -0.478908 0.19893977 -8.080111
000260 5b 42 70 3e 30 76 3a 3e 62 7f 0b 3f bb 34 76 3e
       0.23462813 0.18209147 0.54491246 0.24043553
000270 fb cd 36 3e e3 05 07 c0 f5 22 2d 3d 6a 20 8c 3d
       0.17852013 -2.1097343 0.042269666 0.0684212
000280 55 bd 99 be dc 90 ff 3e 9b ff d7 be 16 95 e4 be
       -0.3002726 0.49915206 -0.421872 -0.44644994
000290 62 b8 18 be f9 a2 e0 3c 62 78 ff bd 36 3e a3 be
       -0.14914086 0.027421461 -0.12474133 -0.318834
0002a0 2d 2a 84 bd 58 c9 4c be d4 2b 88 c0 d5 99 9c 3d
       -0.06453357 -0.19998682 -4.25535 0.07646529
0002b0 91 a9 6f bd 90 a7 f0 3d 0e 88 a0 be de 1d 99 bc
       -0.05851132 0.1175071 -0.313538 -0.018691
0002c0 b4 dc f1 be e1 0d 1a 3e ef b9 e7 bf aa 3e 7c bc
       -0.47238696 0.15044357 -1.8103617 -0.0153958
0002d0 2c 3d bf be e0 05 8b bd 95 15 a2 3e f5 18 1b be
       -0.37351358 -0.0678823 0.3165709 -0.15146239
0002e0 d1 a9 8e be d9 7f fb bd 81 65 d5 3c fa c8 ae be
       -0.27863935 -0.122802444 0.026049377 -0.34137708
0002f0 50 27 4f be 55 16 cc be a5 fd f4 3e 51 66 d6 3e
       -0.2022984 -0.39860788 0.47849765 0.41874936
000300 10 5c 7f be 44 a6 17 bf ef 73 3a c0 99 7c 38 bd
       -0.24937463 -0.59238076 -2.913326 -0.0450407
000310 22 23 22 3e e8 cf c8 bc d0 7f cf be c9 3c 22 3e
       0.15833715 -0.0245132 -0.405272 0.158435
000320 87 f0 e2 3e 2b 5a 1e bd e4 72 85 3d 6b df 77 be
       0.44324133 -0.03866021 0.06516054 -0.24206321
000330 3b fe fe be 52 aa 29 3f 8e 37 78 bc 44 57 0a 3d
       -0.49803337 0.66275513 -0.015149964 0.03377463
000340 2d 84 a9 3c 74 3a dc 3c b4 94 db bd 9b 1b 97 3d
       0.02069291 0.026883341 -0.10721722 0.07378312
000350 80 24 a9 bc fc bc 7c 3d d9 62 b2 3b fa bb 05 3d
       -0.020647287 0.061703667 0.0054439125 0.03264997
000360 4f a7 17 bd 7b 0c af bd b7 f3 b7 3d a3 5b 96 bc
       -0.037024792 -0.08547302 0.08982032 -0.018354243
000370 08 df 45 bd b6 74 06 3d 67 e9 a3 bc a1 1d 30 3f
       -0.048308402 0.032826148 -0.020008756 0.6879521
000380 2c 46 1d bb 94 4c ce 3c 78 63 c3 bc 9f 00 fa 3d
       -0.0023998125 0.025183 -0.023851141 0.1220715
000390 c4 85 e6 3d 36 c9 0f 3e 0c fd 27 3d ef 27 81 3c
       0.112559825 0.140416 0.04101281 0.015766112
0003a0 3e 76 71 3c 12 de 4e 3d 5a 51 7f 3d a1 66 ef 3d
       0.014737664 0.05050475 0.062333442 0.11689497
0003b0 3e fa a2 be 20 1f 23 3d c4 5d 47 3c 19 cd f3 3e
       -0.31831545 0.039824605 0.012168352 0.47617415
0003c0 54 93 0c bd 5b 4e 0a 3b 8c 4b db bc f0 85 0d 3e
       -0.03432019 0.0021103832 -0.026769422 0.13820624
0003d0 f2 1e 12 bf 5f 4d 71 bd 7c 3c bb 3d 34 45 25 bc
       -0.5707847 -0.058911677 0.09142396 -0.0100873
0003e0 7d 75 4a 3d 29 a2 cd 3c fe 2f 2b 3e 5d 63 5d be
       0.04942845 0.025101738 0.16717526 -0.21619935
0003f0 69 b3 5e bd 95 aa 89 be 35 0b 61 3f c4 64 05 40
       -0.054370318 -0.26887956 0.87907726 2.0842752

MatMul_H5.bias f4 [50]
000000 a2 a6 66 bf 35 07 03 bf 80 35 de 3b d4 7a 0c bf
       -0.9009801 -0.5118287 0.00678128 -0.5487492
000010 35 6a ec 3d 2d 6d 2a bf fe 67 a1 bd b7 0b 51 c0
       0.11543695 -0.6657284 -0.07881163 -3.26634
000020 bd 70 7a 3d 82 29 49 bf a8 37 a7 3e e2 b0 44 be
       0.06114267 -0.7857896 0.3265965 -0.192081
000030 ab 38 ce be f0 94 fc be 02 83 0b bf c1 89 67 be
       -0.4027761 -0.4933238 -0.5449678 -0.22611143
000040 eb dd 9b be 92 36 c5 3d 65 0d 5e 3e d8 c7 a1 3e
       -0.30442747 0.09629549 0.21684797 0.3159778
000050 79 9c 66 3e d9 80 8f 3e 4e 40 ff 39 a0 a5 07 bf
       0.22520627 0.2802799 0.000486853 -0.529871
000060 c7 51 17 3e ad 72 b8 3e d5 a7 e6 bc b6 4b 73 3e
       0.1477729 0.3602499 -0.0281562 0.2375935
000070 de 0d 01 3f 46 4a 11 bf 53 0c d7 bf fc 12 e4 bc
       0.50411785 -0.5675396 -1.6800636 -0.027841084
000080 06 1e df 3e d4 47 a4 3e 25 eb 09 3d 24 ef 8d 3e
       0.43577594 0.3208605 0.033671517 0.27721512
000090 5d e6 b1 be 3c 8e 5b 3e 0b 58 94 3e fa 0d b2 3e
       -0.34746066 0.21440977 0.2897342 0.34776288
0000a0 a4 39 24 3e 3e db 5a be fd b5 60 bf 7e 1c fb be
       0.16037613 -0.21372697 -0.8777769 -0.49045175
0000b0 08 c1 c6 bf 70 53 ca 3e b7 14 75 3e 26 48 1c 3e
       -1.5527658 0.39516783 0.23933683 0.15261897
0000c0 2d 5b 03 3f 1c d9 fa 3e
       0.51311 0.48993766
