ACAS_Xu/models/model_1.pth (torch, 57723 bytes, 14 tensors)

MatMul_H0.weight f4 [50, 5]
-0.35543662 -0.0034243348 -0.12285185 -1.2070307 -0.21494846 -1.2923279 0.05441236 0.27953786
-0.2731045 -0.33486244 0.10889423 1.4744571 0.24216464 0.37324998 -0.113618515 0.43501976
0.76813465 -0.7652216 -0.26125765 0.22490343 -0.48666745 0.12885782 -0.056004725 0.14685097
-0.55756795 -0.016190436 0.022781407 -0.03061466 -0.4337954 -0.40754813 -1.4757051 -0.12976478
0.009841903 0.030569505 0.014294042 0.71287894 0.07570494 -0.3132031 -0.10558939 -0.15952572
0.12819365 1.1935996 0.49709898 0.41970366 -0.22086687 0.012699838 2.9658406 0.05020874
0.13321468 -0.5923906 0.11912108 1.7993499 -1.7914168 0.08410965 -0.023311578 -0.13884138
0.61729336 -1.8166907 -0.05025709 -0.4917621 0.7656523 0.049996328 0.05621835 0.2640466
-0.25072366 0.32153493 0.37055236 -0.19815785 0.1845229 0.45482472 -0.17817335 -0.1092039
-0.16573468 -0.39088598 -2.3080251 0.19182914 -0.17562981 1.4809465 -0.028946657 0.32488135
0.12718615 0.011717642 0.002106344 -0.02567166 0.8463898 0.15736386 -1.0453387 1.0929233
-0.13348281 -0.0033282635 -1.0456188 0.10286351 -0.23034514 0.0420589 0.049097866 -0.9703484
0.07345122 -0.14133051 -0.20135118 -0.1770002 -0.14341088 -0.3122214 -0.4173993 -0.036977325
-0.17628805 0.014680584 -0.15752354 0.23669253 -0.6008348 -0.079357244 0.047315117 -0.27888888
0.057529446 -0.31684706 0.06692286 -0.29534748 -0.0887277 -1.1909381 0.04691641 0.078955434
0.027035825 -0.23488593 0.42131168 -0.23493384 0.06968936 -0.030919313 0.9085223 0.1415404
-0.37982196 0.077918544 0.77957493 -0.022219827 0.052324314 0.55638784 -1.0147197 0.20885934
-0.55868185 0.77978754 0.21509421 -1.505625 -1.3556991 -0.20793611 0.22606407 0.10129205
0.023116983 0.072835565 -2.3498535 0.26900616 0.3582222 -0.8983238 0.0070111468 -0.07452932
-2.3479693 0.003469605 0.048316225 -0.029306935 0.3835601 -0.61898607 0.014113792 0.08485033
-0.19329914 0.05429619 4.3288223e-05 0.29453465 0.21808463 0.66434896 0.058227055 0.044855088
-1.3240296 0.84305465 1.2090312 0.059009366 -0.064767756 0.0018895074 -0.015016383 -0.7056457
0.07599496 0.087116495 -0.042765763 0.034506705 -0.023818968 0.08493017 1.7769635 -0.09153389
-0.012171024 -0.7040051 -0.19624019 -0.47424716 -0.37318578 0.13664857 -0.9592686 0.06398876
0.64771914 -0.37313685 0.20630077 0.053331506 -2.3827465 -0.10564214 0.25492936 0.103630826
-0.2675789 0.029009582 0.56579393 0.39121148 -0.59258735 0.47145045 2.5976572 -0.29723558
-0.107973315 0.17010064 -0.0668052 0.29292548 -0.5685786 -0.58001995 -0.083705015 -0.12544791
-0.044194613 0.051647495 -0.7778501 0.64391196 0.30400926 1.1629088 -0.036597457 0.40185952
-0.8522712 -1.3747778 0.023347799 0.061536644 -0.040662408 0.006483149 -1.3971735 -0.03426252
0.092852354 -0.009508259 -0.049715396 -0.018015042 0.014144062 -0.09959708 -0.5224745 -0.04692079
-0.2619182 0.04321851 -0.46186465 0.31983352 -0.48003674 -1.4933417 -0.016883759 0.031725325
0.0137172 -0.012349656
00000000: cafb b5be ce6a 60bb c099 fbbd fb7f 9abf
00000010: 731b 5cbe 006b a5bf 7fdf 5e3d 961f 8f3e
00000020: 5ad4 8bbe 1773 abbe f003 df3d 03bb bc3f
00000030: 02fa 773e 9f1a bf3e d3b0 e8bd e9ba de3e
00000040: 79a4 443f 90e5 43bf 90c3 85be 164d 663e
00000050: 7a2c f9be 4ef3 033e 3665 65bd 1a60 163e
00000060: c6bc 0ebf cea1 84bc 13a0 ba3c 98cb fabc
00000070: 6e1a debe 26aa d0be e8e3 bcbf 0fe1 04be
00000080: ef3f 213c e66c fa3c 8f31 6a3c 3c7f 363f
00000090: 310b 9b3d 285c a0be 403f d8bd b65a 23be
000000a0: 3245 033e dfc7 983f c283 fe3e 66e3 d63e
000000b0: ed2a 62be fb12 503c 55d0 3d40 aea7 4d3d
000000c0: 6e69 083e e9a6 17bf c1f5 f33d 1951 e63f
000000d0: 254d e5bf ae41 ac3d ecf7 bebc 6f2c 0ebe
000000e0: f006 1e3f 5289 e8bf 61da 4dbd 3ec8 fbbe
000000f0: ca01 443f f3c8 4c3d 3645 663d 1e31 873e
00000100: da5e 80be 3aa0 a43e 0ab9 bd3e e4e9 4abe
00000110: 92f3 3c3e c9de e83e 1373 36be 4ba6 dfbd
00000120: 5ab6 29be 3522 c8be afb6 13c0 dc6e 443e
00000130: 4dd8 33be a88f bd3f 8a21 edbc d956 a63e
00000140: 163d 023e 5afb 3f3c 970a 0a3b 604d d2bc
00000150: 00ad 583f fe23 213e a9cd 85bf e9e4 8b3f
00000160: b8af 08be ff1e 5abb d6d6 85bf 1baa d23d
00000170: 99df 6bbe f445 2c3d d81a 493d c168 78bf
00000180: 986d 963d f2b8 10be 012f 4ebe 8a3f 35be
00000190: 4dda 12be 7cdb 9fbe 5cb5 d5be 8975 17bd
000001a0: db84 34be d586 703c da4d 21be 875f 723e
000001b0: 4fd0 19bf 0d86 a2bd 7fcd 413d 86ca 8ebe
000001c0: ffa3 6b3d c739 a2be da0e 893d c937 97be
000001d0: deb6 b5bd a970 98bf 6c2b 403d 63b3 a13d
000001e0: 3c7a dd3c f085 70be 2ab6 d73e 7f92 70be
000001f0: 4cb9 8e3d 804a fdbc eb94 683f f7ef 103e
00000200: 0678 c2be c293 9f3d 3992 473f 5b06 b6bc
00000210: 0552 563d 6f6f 0e3f 56e2 81bf 39df 553e
00000220: c605 0fbf 28a0 473f a841 5c3e 52b8 c0bf
00000230: 8c87 adbf 34ed 54be 577d 673e 3572 cf3d
00000240: d45f bd3c d02a 953d 0064 16c0 2dbb 893e
00000250: e668 b73e 8cf8 65bf c3bd e53b d4a2 98bd
00000260: 2145 16c0 5062 633b 3ce7 453d 1915 f0bc
00000270: fd61 c43e df75 1ebf 893d 673c 03c6 ad3d
00000280: 36f0 45be af65 5e3d 6090 3538 3fcd 963e
00000290: 9451 5f3e c612 2a3f 7e7f 6e3d f8b9 373d
000002a0: cd79 a9bf 6ed2 573f 89c1 9a3f ceb3 713d
000002b0: f5a4 84bd 59a9 f73a 4607 76bc 32a5 34bf
000002c0: 3fa3 9b3d 226a b23d 272b 2fbd e756 0d3d
000002d0: ff1f c3bc deef ad3d 8a73 e33f 1f76 bbbd
000002e0: fa68 47bc ae39 34bf 30f3 48be 86d0 f2be
000002f0: 3512 bfbe 9aed 0b3e a192 75bf 8a0c 833d
00000300: ecd0 253f cb0b bfbe 8240 533e 2372 5a3d
00000310: eb7e 18c0 e85a d8bd 1a86 823e 663c d43d
00000320: 1a00 89be 81a5 ed3c dfd7 103f df4c c83e
00000330: ceb3 17bf f461 f13e 0440 2640 432f 98be
00000340: 1d21 ddbd dd2e 2e3e 2ad1 88bd 54fa 953e
00000350: 5e8e 11bf 307c 14bf 896d abbd 6b75 00be
00000360: 6905 35bd 538c 533d 2f21 47bf 6ad7 243f
00000370: 1aa7 9b3e 32da 943f 37e7 15bd 88c0 cd3e
00000380: 722e 5abf b8f8 afbf e243 bf3c d90d 7c3d
00000390: a08d 26bd 9870 d43b 95d6 b2bf db56 0cbd
000003a0: 6029 be3d 87c8 1bbc 5fa2 4bbd 4894 93bc
000003b0: 7fbc 673c 8ef9 cbbd e4c0 05bf 0430 40bd
000003c0: 241a 86be e405 313d 8679 ecbe 38c1 a33e
000003d0: 60c7 f5be d225 bfbf cf4f 8abc 6af2 013d
000003e0: 1bbe 603c 3656 4abc

MatMul_H0.bias f4 [50]
-0.5156276 -0.32850608 0.113845676 0.33381966 -0.095888905 -0.07969184 -0.36999848 0.09685017
-0.07030017 -0.16917567 -0.627476 -0.28363854 0.30984908 -0.12697704 -0.84543693 0.03132442
-0.2315451 0.5050679 -0.19407651 -0.15679571 0.0776058 -0.21123827 0.021123221 -0.037174776
0.14604719 0.12582573 0.03748068 -0.43575484 -0.2366404 -0.21480697 0.035586685 0.2900063
0.1655476 -0.038424287 0.3721103 -0.13641948 0.024599021 -0.16898991 -0.16916154 0.17817509
0.07818092 0.74283826 -0.00557242 0.006751208 -0.21166965 -0.17464516 -0.36935708 0.15767391
0.02023091 -0.42189467
00000000: 2c00 04bf f331 a8be ec27 e93d 69ea aa3e
00000010: 6761 c4bd 7a35 a3bd 7170 bdbe 6259 c63d
00000020: 89f9 8fbd 633c 2dbe 44a2 20bf 1239 91be
00000030: 8aa4 9e3e 4506 02be 8e6e 58bf 094e 003d
00000040: 291a 6dbe 214c 013f febb 46be 0e8f 20be
00000050: caef 9e3d d84e 58be 9b0a ad3c 9444 18bd
00000060: 658d 153e 76d8 003e 5785 193d 421b dfbe
00000070: dc51 72be 5cf6 5bbe 58c3 113d b57b 943e
00000080: 4f85 293e c962 1dbd 3e85 be3e 8cb1 0bbe
00000090: e383 c93c b10b 2dbe af38 2dbe 8873 363e
000000a0: 511d a03d a62a 3e3f d998 b6bb 3d39 dd3b
000000b0: eebf 58be 2ed6 32be 5f1c bdbe 4575 213e
000000c0: 4bbb a53c 9402 d8be

MatMul_H1.weight f4 [50, 50]
0.30367768 -0.10893613 -0.17255619 0.32230386 -0.1957347 -0.17740987 -1.7061129 -0.22564045
0.26257694 -0.08925282 -0.049822874 0.29284436 0.4787632 0.01674946 0.17138313 0.05577942
0.009366146 0.23860548 -1.0696577 0.08762142 0.72266906 0.21779358 0.06343921 -0.16572809
0.14646591 0.23859176 0.012575884 -0.11813892 -0.6390069 0.110937044 0.14773093 0.22444586
0.51103693 -0.31684488 2.6116116 0.028966574 -0.13693504 0.1981893 -0.060190037 0.24376234
-0.11160392 0.2060674 -0.10659561 -0.062362812 0.072090775 -1.0272462 -0.4500158 0.24324809
-0.33693537 -2.5719683 0.00512017 -0.00110336 0.00939503 -0.0338519 -0.0409525 -0.0426544
0.0249018 0.00985929 -0.02575 -0.0171912 -0.0304352 0.00790877 -0.0143967 0.0288175
-0.0195283 -0.0499464 -0.0212511 0.0232231 0.0210216 -0.0388653 -0.0104898 0.00664898
0.0302653 -0.0118488 0.0190856 -0.0642759 0.000988801 0.0341595 0.0282808 -0.0199378
0.0109649 -0.0402279 -0.00426311 -0.00879042 -0.0611482 -0.0188838 -0.0495633 0.00252912
-0.0178529 -0.0202519 0.0259426 -0.00779105 0.0376458 0.0226733 -0.031216 0.0204487
-0.0330674 0.0201219 -0.00764702 0.0240356 0.85781544 -0.061859887 0.13429528 -0.62650114
-0.34887096 1.4080848 0.28089982 1.1130795 0.39824644 0.34392276 -1.0178101 0.06924362
-0.2001277 0.6078804 -0.43575943 -0.26419973 -0.054509636 0.33473238 -0.04850093 0.020757992
-0.15777631 0.10981564 0.30126774 0.12095049 0.6201715 0.41438848 -0.8421701 0.5948773
0.5146768 0.5741446 0.3291444 0.33356306 -0.9626895 -0.12760477 -0.042518888 -0.07138096
0.18601698 -0.11869598 -0.3618439 0.43776575 -0.29771787 0.80984557 0.04838412 1.1162045
0.38689658 -0.08687662 -1.4505317 0.59276843 0.038578972 2.0761302 0.26305768 -0.06487456
-0.650104 -0.85936475 -0.26535586 -0.27981147 -0.61851853 -0.03314 -0.0457465 -0.392839
-0.0462012 -0.00837178 0.16565314 -0.8906031 -0.210227 0.3567668 0.018439792 0.20239814
-1.3105414 0.06514126 -0.57851684 -0.008960866 -0.4090979 0.82357967 -0.04745625 -0.25477204
-0.130685 -0.31993884 0.021563798 0.085720085 -2.7198524 -0.9347014 -0.5875989 0.046353184
-0.38129002 0.23970038 1.0983808 0.52706814 -0.65591973 1.3297396 -0.20231757 -0.22517705
0.2833866 0.47323766 0.31959 -0.33015704 0.39745235 0.68822855 0.18695086 -0.588435
0.032767676 -0.3049854 0.6615702 0.51111674 0.24842459 -0.29370368 0.26746935 0.063051574
-0.12883455 -0.073971935 1.6428651 -0.9732939 -0.13297425 -0.012965837 -1.4042263 -1.4488165
0.3582329 -2.0961628 0.058180045 -0.20617367 0.034164745 -1.1093166 -0.26500595 0.36306626
-1.2153848 0.47200474 -0.18618004 0.886686 0.8896158 -0.15657501 0.6224033 0.51747674
-0.517321 0.38044888 -0.08791339 0.2611581 -3.9072611 0.22228953 -0.7299968 -0.23778318
-0.31988665 0.5952949 -0.10476979 -0.075843714 -0.4043671 0.37534937 -0.15628318 -0.046198644
0.53878367 0.3423566 -1.5506246 -0.7147482 1.3155727 -0.35308036 0.23242202 1.296723
00000000: a47b 9b3e e819 dfbd 92b2 30be 0305 a53e
00000010: ad6e 48be efaa 35be e861 dabf 4a0e 67be
00000020: 7c70 863e 2fca b6bd 1213 4cbd b2ef 953e
00000030: 7320 f53e 2a36 893c 0f7f 2f3e f678 643d
00000040: 7774 193c ff54 743e 8bea 88bf dc72 b33d
00000050: d700 393f 4805 5f3e 6bec 813d a0b4 29be
00000060: 29fb 153e 6651 743e 150b 4e3c d1f2 f1bd
00000070: f595 23bf f632 e33d c746 173e 23d5 653e
00000080: 51d3 023f 7e39 a2be a524 2740 4f4b ed3c
00000090: b338 0cbe 23f2 4a3e d489 76bd d69c 793e
000000a0: 9990 e4bd 5503 533e cd4e dabd 2670 7fbd
000000b0: 54a4 933d ce7c 83bf 7968 e6be 0716 793e
000000c0: cb82 acbe 219b 24c0 19c7 a73b 9e9e 90ba
000000d0: 9ded 193c 4aa8 0abd cfbd 27bd 61b6 2ebd
000000e0: dcfe cb3c dc88 213c aaf1 d2bc 8fd4 8cbc
000000f0: 3e53 f9bc c993 013c 23e0 6bbc ae12 ec3c
00000100: d0f9 9fbc 9994 4cbd c916 aebc 5f3e be3c
00000110: 7e35 ac3c 3931 1fbd 69dd 2bbc b0df d93b
00000120: efee f73c 7821 42bc 6759 9c3c 15a3 83bd
00000130: a89a 813a d5ea 0b3d 23ad e73c 9954 a3bc
00000140: 20a6 333c 03c6 24bd 8fb1 8bbb b205 10bc
00000150: 8976 7abd 33b2 9abc e302 4bbd 98bf 253b
00000160: 3f40 92bc 50e7 a5bc 9385 d43c 104c ffbb
00000170: 7b32 1a3d 5bbd b93c b2b8 ffbc 0884 a73c
00000180: af71 07bd afd6 a43c da93 fabb 4ee6 c43c
00000190: cb99 5b3f cb60 7dbd b484 093e 6162 20bf
000001a0: 379f b2be 1f3c b43f 1ad2 8f3e 6479 8e3f
000001b0: f5e6 cb3e a516 b03e 9a47 82bf 99cf 8d3d
000001c0: 47ee 4cbe 0d9e 1b3f dc1b dfbe 3045 87be
000001d0: 7f45 5fbd 0b62 ab3e e9a8 46bd aa0c aa3c
000001e0: 1d90 21be 06e7 e03d c43f 9a3e e4b4 f73d
000001f0: 8fc3 1e3f ba2a d43e 7698 57bf e149 183f
00000200: dcc1 033f 24fb 123f 9d85 a83e c7c8 aa3e
00000210: d272 76bf d3aa 02be 4928 2ebd 2e30 92bd
00000220: 3c7b 3e3e e116 f3bd 9b43 b9be d522 e03e
00000230: 7a6e 98be 0a52 4f3f 6d2e 463d cadf 8e3f
00000240: 4f17 c63e 5fec b1bd 06ab b9bf acbf 173f
00000250: fc04 1e3d 51df 0440 7faf 863e f4dc 84bd
00000260: 376d 26bf 54ff 5bbf b9dc 87be 7343 8fbe
00000270: 3b57 1ebf cfbd 07bd af60 3bbd 3222 c9be
00000280: 783d 3dbd ca29 09bc faa0 293e 91fe 63bf
00000290: bf45 57be 23aa b63e 0c0f 973c 7541 4f3e
000002a0: d2bf a7bf c868 853d ae19 14bf 99d0 12bc
000002b0: 4875 d1be 1ed6 523f 7c61 42bd 7b71 82be
000002c0: 4ad2 05be 06cf a3be 90a6 b03c 038e af3d
000002d0: 1012 2ec0 9748 6fbf e26c 16bf d6dc 3d3d
000002e0: 7238 c3be 0474 753e be97 8c3f f0ed 063f
000002f0: 5bea 27bf e834 aa3f 562c 4fbe d094 66be
00000300: 0c18 913e 354c f23e 4da1 a33e 580a a9be
00000310: e07e cb3e bf2f 303f 0c70 3f3e ada3 16bf
00000320: 6637 063d 0c27 9cbe aa5c 293f 8cd8 023f
00000330: 0463 7e3e 5460 96be bef1 883e 2f21 813d
00000340: 34ed 03be 997e 97bd 6749 d23f ca29 79bf
00000350: 672a 08be a96e 54bc b0bd b3bf d272 b9bf
00000360: 4d6a b73e 8827 06c0 334e 6e3d 311f 53be
00000370: 55f0 0b3d 16fe 8dbf dcae 87be d2e3 b93e
00000380: bb91 9bbf 9baa f13e fba5 3ebe dbfd 623f
00000390: dcbd 633f 3355 20be d355 1f3f 5b79 043f
000003a0: 266f 04bf 32ca c23e ef0b b4bd 84b6 853e
000003b0: 9110 7ac0 de9f 633e 12e1 3abf 6f7d 73be
000003c0: 2fc8 a3be 3f65 183f 8b91 d6bd f353 9bbd
000003d0: 3409 cfbe cb2d c03e b308 20be ca3a 3dbd
000003e0: baed 093f 5d49 af3e de7a c6bf bdf9 36bf
000003f0: b064 a83f f3c6 b4be 0a00 6e3e 05fb a53f

MatMul_H1.bias f4 [50]
-0.054325152 -0.0196968 -1.0631384 -1.3782475 -0.91514015 -0.51793844 0.9624453 0.041189592
-1.6838003 -1.1462735 -1.262484 -0.00442169 0.002664704 0.026301857 0.1913516 0.32538825
-0.2661293 0.99859536 0.8592931 -0.00405632 -0.37017262 -0.0262937 -0.80552226 0.30838484
0.12081789 -0.15782513 -0.13276987 -0.07335289 -0.09168774 -0.0130102 -1.1060584 0.13096929
-0.3587841 -0.0266111 0.5243385 0.61353886 -0.47866118 0.07190718 0.21725973 0.47160453
0.8424726 -0.6808301 0.28392142 -1.0901937 -0.00975248 -0.73996836 0.18547657 -0.09573758
-0.0113358 -0.0151501
00000000: 0d84 5ebd 2f5b a1bc eb14 88bf 6a6a b0bf
00000010: a046 6abf 9d97 04bf d162 763f 6bb6 283d
00000020: c586 d7bf 17b9 92bf 1399 a1bf d3e3 90bb
00000030: 51a2 2e3b fe76 d73c adf1 433e 4a99 a63e
00000040: 1a42 88be f2a3 7f3f a2fa 5b3f e1ea 84bb
00000050: 4487 bdbe e365 d7bc b536 4ebf 9ee4 9d3e
00000060: 5f6f f73d e99c 21be d3f4 07be 0a3a 96bd
00000070: c8c6 bbbd bc28 55bc 5293 8dbf d01c 063e
00000080: 8db2 b7be 86ff d9bc 0c3b 063f e210 1d3f
00000090: 1413 f5be 1244 933d 5679 5e3e 2676 f13e
000000a0: 49ac 573f e24a 2ebf 265e 913e 788b 8bbf
000000b0: dec8 1fbc 916e 3dbf 92ed 3d3e 1012 c4bd
000000c0: cbb9 39bc 2038 78bc

MatMul_H2.weight f4 [50, 50]
0.51577336 0.042689 0.12236379 0.408132 1.253396 -0.419235 0.20906104 -0.3173892
-0.2433734 0.44748 -0.20296583 -0.0351647 0.53796107 0.03514768 0.6394182 0.2651118
-0.7038379 0.47145241 0.20132446 -0.0264687 -0.31312636 0.00483832 0.43479717 -1.3406507
0.34976348 -0.4101249 0.20909229 -0.7938935 0.17653865 -0.0430735 -0.5740222 -0.305874
0.39359465 -0.000577187 -0.6392519 -0.026594698 0.36963364 -0.254571 0.27567565 -0.67346245
-0.1867595 0.6204863 -0.7251044 0.744681 0.0282788 0.5239824 -0.48343754 0.20019284
-0.00826563 -0.009606 -0.051927 0.0145672 -0.0378504 -0.0462402 0.0127743 -0.012873
0.0302575 0.0292933 0.0154693 0.00960815 -0.0370813 0.02254 -0.00526134 -0.0196377
-0.0368824 -0.00832411 -0.0275113 0.0368109 -0.0115086 -0.0372663 -0.0311183 0.00599576
0.019807 0.00898338 -0.0352619 -0.00807641 0.00595761 0.0314434 0.0266926 0.00420492
0.00797838 -0.0223685 0.0113492 0.00147609 -0.0775828 -0.048765 -0.0288256 0.00109601
-0.0230014 -0.0496536 0.0367546 0.00633181 -0.00913548 0.0115697 -0.0464471 -0.0494697
-0.0469308 -0.033039 -0.0453863 0.015257 -0.00868426 0.0139934 -0.043453 0.00525859
0.0231847 -0.0146214 -0.0584851 0.0116337 -0.0261657 -0.0201506 0.0369896 -0.0209067
-0.0470068 0.0424407 0.0352273 -0.0309319 -0.0182102 0.0175731 0.00893749 0.00919113
-0.0283555 -0.0157478 0.0227747 -0.0141795 -0.046804 -0.00988514 -0.0259977 -0.0449372
-0.0219652 0.0142895 -0.0466159 0.0314865 0.00598192 -0.0183032 -0.0504686 -0.057265
-0.0306366 -0.00586367 0.0278092 -0.0159727 -0.0394517 0.0180088 0.0231161 0.0336082
-0.0477249 -0.0545006 -0.0374059 -0.00733768 0.0107306 -0.000494826 0.32986578 0.0345179
0.14716323 1.3652276 0.57293826 -0.584328 0.13534358 -0.3324896 -0.22709851 0.6795269
-0.02959663 0.0110973 1.22154 0.49927613 -0.74196184 -0.39496687 -0.1699199 -0.37606242
0.8360383 0.000553335 0.874194 -0.0257751 0.95112807 1.346483 -0.31211555 0.28590643
-0.69468385 -0.09030284 0.06613145 -0.0153212 0.93315333 -0.128399 0.3643553 -0.045993
-1.7784915 -0.13726792 -0.26767102 -0.10946787 0.18353885 0.13925256 0.614199 0.4505066
-0.63503355 -1.0270787 -0.0184681 0.14905082 0.49942255 0.54567724 0.0393304 0.0411944
0.085317984 -0.0270054 0.09042592 -0.75605106 0.011892212 -0.24402893 -0.022500994 -0.32733166
-0.27681395 0.31594765 -0.11974358 -0.0340168 -0.36479712 -0.037921116 -0.00050607236 0.2662458
0.4287764 -0.05400826 -0.17802487 0.030212 0.07666469 -0.0411323 -0.10488104 -0.40767682
0.061773214 -0.013247822 -0.13149503 -1.3240988 0.02432915 -0.0220995 -0.3505396 -0.051535245
-1.2991238 0.0144707 -0.6679832 0.15845321 -1.0259914 -0.4722944 0.14758396 0.49122983
0.09470522 0.3173888 -0.32066548 0.76566726 0.0208416 0.11286465 -0.31559315 0.02450442
0.034107 -0.0219078 -1.6024283 -0.0439601 -0.010283098 1.0799433 0.48132613 0.29479894
00000000: b909 043f a9da 2e3d de99 fa3d adf6 d03e
00000010: 486f a03f f8a5 d6be 1914 563e d680 a2be
00000020: e036 79be 191c e53e 46d6 4fbe dc08 10bd
00000030: d1b7 093f 04f7 0f3d e9b0 233f bcbc 873e
00000040: b82e 34bf 3662 f13e 0028 4e3e e3d4 d8bc
00000050: 1952 a0be c58a 9e3b bc9d de3e 719a abbf
00000060: 3314 b33e e4fb d1be 4a1c 563e 9b3c 4bbf
00000070: 8cc6 343e d76d 30bd 1ef3 12bf 849b 9cbe
00000080: 3d85 c93e 5d4e 17ba 03a6 23bf 20dd d9bc
00000090: 9f40 bd3e 2157 82be 5c25 8d3e 0968 2cbf
000000a0: e23d 3fbe 31d8 1e3f 71a0 39bf 6aa3 3e3f
000000b0: f1a8 e73c b623 063f 2085 f7be 5aff 4c3e
000000c0: 916c 07bc 7c62 1dbc 68b1 54bd 44ab 6e3c
000000d0: 0509 1bbd 5d66 3dbd 4c4b 513c 47e9 52bc
000000e0: 94de f73c 81f8 ef3c f272 7d3c 816b 1d3c
000000f0: 90e2 17bd cea5 b83c 5267 acbb 3edf a0bc
00000100: 0012 17bd d961 08bc 615f e1bc 07c7 163d
00000110: 918e 3cbc 8ca4 18bd ceeb febc 1578 c43b
00000120: 4a42 a23c 072f 133c c86e 10bd eb52 04bc
00000130: 0e38 c33b cbca 003d 71aa da3c 6dc9 893b
00000140: c0b7 023c 253e b7bc fff1 393c 5d79 c13a
00000150: bbe3 9ebd cfbd 47bd aa23 ecbc fea7 8f3a
00000160: 6f6d bcbc 9361 4bbd fe8b 163d 127b cf3b
00000170: fbac 15bc d78e 3d3c 503f 3ebd bda0 4abd
00000180: 833a 40bd e753 07bd fce6 39bd 7ff8 793c
00000190: 6d48 0ebc 9344 653c c6fb 31bd 4050 ac3b
000001a0: d7ed bd3c 998e 6fbc 128e 6fbd 469b 3e3c
000001b0: 7359 d6bc df12 a5bc 6882 173d 8744 abbc
000001c0: 348a 40bd 4dd6 2d3d 804a 103d e564 fdbc
000001d0: 8f2d 95bc 76f5 8f3c 8d6e 123c 6596 163c
000001e0: cb49 e8bc 8801 81bc 0292 ba3c 2251 68bc
000001f0: 8db5 3fbd 48f5 21bc 21f9 d4bc 1210 38bd
00000200: 5df0 b3bc 821e 6a3c 50f0 3ebd fdf7 003d
00000210: fb03 c43b 98f0 95bc 2ab8 4ebd b48e 6abd
00000220: 9bf9 fabc 0724 c0bb 1fd0 e33c 2ed9 82bc
00000230: 1b98 21bd 3187 933c fa5d bd3c c0a8 093d
00000240: 2f7b 43bd 053c 5fbd ee36 19bd ec70 f0bb
00000250: 66cf 2f3c 36b7 01ba 2be4 a83e a462 0d3d
00000260: f5b1 163e c7bf ae3f 15ac 123f 8596 15bf
00000270: 8297 0a3e 143c aabe 838c 68be 7af5 2d3f
00000280: a274 f2bc 73d1 353c 6c5b 9c3f 1fa1 ff3e
00000290: 36f1 3dbf 1939 cabe 7bff 2dbe 418b c0be
000002a0: 9b06 563f af0d 113a 2ecb 5f3f 4d26 d3bc
000002b0: 217d 733f 8e59 ac3f 9ccd 9fbe 5462 923e
000002c0: cdd6 31bf b2f0 b8bd ed6f 873d c505 7bbc
000002d0: 23e3 6e3f 077b 03be c78c ba3e 2863 3cbd
000002e0: 9ca5 e3bf f68f 0cbe 2d0c 89be b130 e0bd
000002f0: 9cf1 3b3e 3998 0e3e 253c 1d3f cda8 e63e
00000300: 8f91 22bf 5177 83bf 6a4a 97bc c7a0 183e
00000310: 50b4 ff3e 81b1 0b3f ea18 213d 76bb 283d
00000320: 32bb ae3d 6e3a ddbc 3a31 b93d 908c 41bf
00000330: 8dd7 423c b8e2 79be 0154 b8bc 0498 a7be
00000340: 8fba 8dbe e4c3 a13e 1f3c f5bd 3355 0bbd
00000350: b0c6 babe 2c53 1bbd f1a9 04ba 5f51 883e
00000360: 9588 db3e c437 5dbd 274c 36be 287f f73c
00000370: 6102 9d3d 587a 28bd dfcb d6bd 04bb d0be
00000380: e905 7d3d 650d 59bc a2a6 06be 127c a9bf
00000390: ed4d c73c 030a b5bc ed79 b3be 9f16 53bd
000003a0: b049 a6bf 8416 6d3c f200 2bbf 8f41 223e
000003b0: b053 83bf 92d0 f1be 4020 173e 7a82 fb3e
000003c0: cff4 c13d c980 a23e 442e a4be c502 443f
000003d0: 01bc aa3c 9525 e73d 6d95 a1be 7ebd c83c
000003e0: c8b3 0b3d fd77 b3bc 5f1c cdbf 810f 34bd
000003f0: 707a 28bc 953b 8a3f 6170 f63e e3ef 963e

MatMul_H2.bias f4 [50]
-1.5656226 -0.0207685 -0.0174994 -1.5496693 0.028716452 0.48319057 0.029332684 -0.6359051
-1.5086228 0.58283544 -0.0192141 0.13006142 0.014928588 0.44788793 1.1777301 -0.039855253
0.4362156 -0.23957662 -0.18553838 -0.082732834 0.06498127 -1.6131511 -0.43230855 -1.7264059
0.33772096 -1.5493857 -0.66237736 0.01745539 0.7513218 -0.0176094 0.75704265 -1.1182123
0.50588703 0.7413931 -0.0280027 0.61042786 -0.4306742 -0.39181128 -0.0133513 -0.100474104
0.09345521 0.31183702 0.5101038 0.26100895 0.74024004 -1.6022032 0.0016194079 0.19141008
0.7045117 -1.461684
00000000: 5266 c8bf b422 aabc e75a 8fbc 905b c6bf
00000010: c43e eb3c c164 f73e 194b f03c adca 22bf
00000020: 8d1a c1bf b434 153f e366 9dbc d22e 053e
00000030: 0997 743c 9151 e53e dcbf 963f 433f 23bd
00000040: a757 df3e 9353 75be c6fd 3dbe d56f a9bd
00000050: e614 853d bc7b cebf 8c57 ddbe defa dcbf
00000060: c3e9 ac3e 4552 c6bf 9091 29bf 9bfe 8e3c
00000070: a056 403f 9741 90bc 8ccd 413f 9521 8fbf
00000080: d081 013f f0cb 3d3f eb65 e5bc 0045 1c3f
00000090: 5481 dcbe 7d9b c8be 69bf 5abc 5ec5 cdbd
000000a0: 7265 bf3d 1aa9 9f3e 2a96 023f f7a2 853e
000000b0: 5f80 3d3f ff14 cdbf 5042 d43a 0101 443e
000000c0: e15a 343f 7618 bbbf

MatMul_H3.weight f4 [50, 50]
-0.13602942 -0.0527434 -0.0256998 -0.8796646 -0.21415278 -0.96126163 -0.3766246 -0.05615663
0.2924085 0.36406788 -0.00246524 0.19673142 -0.30594754 1.757082 0.24114196 -0.043599334
1.5082331 -0.45395336 0.5667367 0.6340743 -0.15209326 0.48785165 0.667519 1.232836
0.34855866 0.074810155 0.66780645 0.23697062 2.6384606 -0.0455483 -1.3911538 0.30523854
1.1709518 0.4275359 -0.0108922 0.16182986 0.043552976 -4.031453 -0.0192105 -0.24301289
0.16817485 3.35842 -0.8118634 0.4092511 -2.27123 0.9893269 -0.86479795 -0.25991094
-2.5934978 -0.036097594 -0.382649 0.0400655 -0.00190641 0.10951079 -0.3513467 0.050134793
-0.6340357 -0.1938853 1.1157274 0.65165955 -0.0140495 -0.37423694 -0.40825567 0.7144968
0.40361562 0.023261687 0.26817065 1.221811 -0.39965868 0.25198928 -0.20585103 0.29917744
-0.29103252 -0.57118183 -0.064337924 0.3098873 0.07698199 0.05075066 0.21146733 0.0445006
0.26804957 0.63350695 0.036191452 0.45710558 -0.0420648 -0.11503378 1.0313089 0.18966055
-0.0187619 0.34369376 0.36970955 0.6699489 -0.3585991 0.20457387 0.21173792 -0.33322746
0.0036243729 -0.139329 0.16649018 -0.0500117 0.8692717 -0.00252048 -0.0463127 0.07113412
-0.64558357 -0.8266943 -1.8739712 0.12854563 1.5424775 -0.21133426 0.0286718 -0.3873213
0.16202872 0.9415745 -0.3014022 0.032989353 0.0013489089 -0.2643898 0.090032555 -0.75854975
-0.020711606 -0.42541012 0.38381678 0.118661925 -0.16246672 -1.3687253 0.13001707 -0.9006308
1.435766 -0.0345184 -1.5775756 0.30015475 -0.5460895 -0.24719423 0.0231488 -1.3746052
1.0241256 1.583039 -0.0379133 0.46707785 0.29312432 -1.8639243 -0.17231895 0.3949651
0.32182357 1.0256965 -1.00745 -0.59653944 -0.29102984 -0.08373648 -0.9791812 -0.0494828
0.027966 -1.2924619 -0.34822378 0.030973194 -0.7171692 -0.013604837 -0.13077411 0.8852838
0.0294446 -0.46041963 -0.08623555 0.6079192 0.24436046 -0.027236238 -0.76802784 -2.6646085
-0.66617113 0.15261741 0.9457992 0.42974427 -0.4803968 -0.6881209 0.6843001 -0.414077
0.5965289 0.23335654 0.79820603 0.0380302 0.41782516 0.4033706 -0.81642777 0.11025477
0.0215141 0.11547713 -0.69193125 -0.4380169 -0.0196199 0.25937724 0.0133888265 0.5380042
0.11979847 -0.22905543 -0.8963117 -4.441928 -0.8970154 0.03299084 -0.5603194 0.07179625
0.3666799 0.042585 0.0206798 -0.38654244 -0.21017936 -0.12061471 0.43828437 0.850664
0.7592981 0.47557244 -0.000876422 -1.1967506 -0.4583545 0.5373974 1.310151 -0.015022454
-0.11423307 -1.2361335 -2.741086 0.3719844 -0.59062976 -0.35853493 1.221989 -0.23364079
0.07482242 -0.15565191 0.50776446 -0.1677292 0.008949816 -0.0109472 -0.2827163 1.2586262
2.0804212 0.26127827 0.0253021 0.05324134 1.0679201 -1.1247625 0.035991 0.06085423
-1.6611311 1.4025745 -0.84136796 -0.22238189 0.90328884 -0.122917905 0.11784773 0.20539336
-1.0134423 0.061674234 -0.24485976 0.0377359 0.0335484 -0.077115424 0.27761602 0.09308745
00000000: 4c4b 0bbe 7709 58bd 6388 d2bc b331 61bf
00000010: de4a 5bbe 3e15 76bf f1d4 c0be 7f04 66bd
00000020: 91b6 953e 1b67 ba3e dd8f 21bb f673 493e
00000030: 28a5 9cbe 10e8 e03f ebed 763e 3795 32bd
00000040: c80d c13f 936c e8be a815 113f b152 223f
00000050: 56be 1bbe b1c7 f93e 86e2 2a3f 92cd 9d3f
00000060: 4876 b23e 1136 993d 5df5 2a3f 6da8 723e
00000070: 8adc 2840 db90 3abd 5411 b2bf 3a48 9c3e
00000080: c0e1 953f fce5 da3e 3375 32bc bab6 253e
00000090: 9b64 323d aa01 81c0 575f 9dbc 5fd8 78be
000000a0: 0736 2c3e 5af0 5640 48d6 4fbf 5c89 d13e
000000b0: d55b 11c0 8744 7d3f 6663 5dbf 0c13 85be
000000c0: defb 25c0 12db 13bd 92ea c3be b91b 243d
000000d0: 81e0 f9ba 3147 e03d b7e3 b3be 245a 4d3d
000000e0: 2a50 22bf de89 46be 28d0 8e3f 29d3 263f
000000f0: e02f 66bc fc9b bfbe e306 d1be 43e9 363f
00000100: b5a6 ce3e 4b8f be3c aa4d 893e 4e64 9c3f
00000110: 10a0 ccbe bd04 813e 9dca 52be c92d 993e
00000120: 3702 95be f938 12bf 9ac3 83bd 8ca9 9e3e
00000130: bca8 9d3d eddf 4f3d e48a 583e 4346 363d
00000140: cb3d 893e 832d 223f 7d3d 143d be09 ea3e
00000150: 244c 2cbd d596 ebbd ee01 843f 6036 423e
00000160: 8eb2 99bc a1f8 af3e 924a bd3e c581 2b3f
00000170: 4d9a b7be d07b 513e d3d1 583e ca9c aabe
00000180: e386 6d3b 43ac 0ebe 677c 2a3e 11d9 4cbd
00000190: 9788 5e3f a32e 25bb 63b2 3dbd c4ae 913d
000001a0: f744 25bf 3da2 53bf 4ade efbf 77a1 033e
000001b0: e76f c53f 0268 58be 1fe1 ea3c fa4e c6be
000001c0: dbea 253e 070b 713f 6451 9abe d81f 073d
000001d0: dfcd b03a 1a5e 87be fd62 b83d 5130 42bf
000001e0: 63ab a9bc 5bcf d9be a283 c43e 0605 f33d
000001f0: ad5d 26be 6432 afbf 3223 053e bd8f 66bf
00000200: 2ec7 b73f 2a63 0dbd ffed c9bf e2ad 993e
00000210: 85cc 0bbf 7c20 7dbe 8da2 bd3c 10f3 afbf
00000220: 8c16 833f 06a1 ca3f fa4a 1bbd d424 ef3e
00000230: 6414 963e 1295 eebf 6174 30be de38 ca3e
00000240: 0fc6 a43e 064a 833f 1ff4 80bf cfb6 18bf
00000250: dd01 95be 087e abbd 9eab 7abf 7aae 4abd
00000260: f418 e53c 646f a5bf 634a b2be 7fbb fd3c
00000270: 6798 37bf d2e6 5ebc a6e9 05be f6a1 623f
00000280: cd35 f13c 1fbc ebbe 449c b0bd 98a0 1b3f
00000290: a139 7a3e 881e dfbc 799d 44bf f288 2ac0
000002a0: 318a 2abf bd47 1c3e e51f 723f 7107 dc3e
000002b0: 92f6 f5be b128 30bf 4b2e 2f3f e701 d4be
000002c0: 1eb6 183f 04f5 6e3e 3b57 4c3f 8ec5 1b3d
000002d0: 2eed d53e 9786 ce3e 6901 51bf 41cd e13d
000002e0: 563e b03c 467f ec3d 6822 31bf c043 e0be
000002f0: eab9 a0bc 18cd 843e cf5c 5b3c a5ba 093f
00000300: e658 f53d 828d 6abe af74 65bf 4624 8ec0
00000310: cda2 65bf 6721 073d 1871 0fbf ea09 933d
00000320: 78bd bb3e 9c6d 2e3d af68 a93c e4e8 c5be
00000330: 4239 57be d804 f7bd cf66 e03e 1ec5 593f
00000340: 5c61 423f 3b7e f33e afbf 65ba 202f 99bf
00000350: 71ad eabe e092 093f 07b3 a73f bd20 76bc
00000360: 07f3 e9bd 9f39 9ebf f46d 2fc0 bd74 be3e
00000370: 8333 17bf e491 b7be 236a 9c3f 883f 6fbe
00000380: 7f3c 993d 3763 1fbe dafc 013f 34c1 2bbe
00000390: 40a2 123c e25b 33bc 31c0 90be aa1a a13f
000003a0: 9f25 0540 44c6 853e 5a46 cf3c 9713 5a3d
000003b0: 9bb1 883f 38f8 8fbf 4c6b 133d 4942 793d
000003c0: f29f d4bf 9087 b33f e463 57bf 14b8 63be
000003d0: f03d 673f 62bc fbbd 275a f13d a352 523e
000003e0: 7ab8 81bf 1f9e 7c3d 84bc 7abe f690 1a3d
000003f0: 0c6a 093d b1ee 9dbd b023 8e3e a2a4 be3d

MatMul_H3.bias f4 [50]
-0.89072055 -0.7701611 -0.541567 0.35431612 0.4179689 0.56618714 -1.0318539 -0.97815216
-0.09298264 1.3298849 0.86015576 0.6658782 -0.21611317 0.46167004 0.3519732 0.08502281
0.6197609 0.87911314 -1.6385463 -0.22938156 -0.53533465 0.21294409 0.39944425 0.37830925
-0.8911732 1.2113993 -0.29541543 -0.4261365 -0.76509535 0.5104186 3.394737 -0.69128317
-0.47095978 -0.68110317 -2.040793 -1.0238042 0.032943267 -0.2200594 -0.85543466 -2.5536413
-0.0309862 -1.0487832 -1.0564672 -0.25991207 -0.7225906 -0.53804266 -1.6811992 -0.78843445
0.11007673 0.007134629
00000000: 4306 64bf 4729 45bf 23a4 0abf ec68 b53e
00000010: 0500 d63e a4f1 103f ca13 84bf 2e68 7abf
00000020: af6d bebd ab39 aa3f 2b33 5c3f fe76 2a3f
00000030: c54c 5dbe 0460 ec3e d535 b43e 7020 ae3d
00000040: a6a8 1e3f 8f0d 613f e3bb d1bf 00e3 6abe
00000050: b10b 09bf 040e 5a3e f583 cc3e c0b1 c13e
00000060: ed23 64bf 220f 9b3f b140 97be 902e dabe
00000070: 4add 43bf cbaa 023f 5f43 5940 eff7 30bf
00000080: a421 f1be c75c 2ebf 5a9c 02c0 040c 83bf
00000090: 85ef 063d 4057 61be c4fd 5abf dc6e 23c0
000000a0: c5d6 fdbc 873e 86bf 513a 87bf 3213 85be
000000b0: b3fb 38bf 2abd 09bf 8931 d7bf d7d6 49bf
000000c0: e96f e13d 9bc9 e93b

MatMul_H4.weight f4 [50, 50]
-0.18514967 -0.38254648 0.0005704855 -0.15845144 -0.1744618 -2.2727373 -0.6799749 0.4126217
-2.7278464 0.23210569 -0.18413813 0.70789886 0.425111 0.94400346 -0.43340477 -1.5527011
0.10103026 1.1647385 -0.47742072 -0.09402967 1.08864 -1.5993688 -0.45777598 0.51422477
1.09679 -0.3266207 0.9035383 0.29290253 0.111175135 0.66473496 -0.2500475 -0.21852678
0.075174406 0.21915433 -0.67808175 0.17631514 0.0062627946 0.016777836 1.4435503 -0.15031321
0.0180286 0.681377 -1.3983517 -1.3589619 0.75315267 -1.2386622 0.16412921 -0.12606962
-0.36680353 0.5000892 -0.17631724 0.1389727 0.7562369 0.7199116 -0.070923045 0.47438285
0.09374212 0.20335573 -1.0803984 0.33737704 -0.22768536 0.065973595 -0.110172115 1.3510222
-0.042359617 -0.74598855 -0.06640485 -1.1422671 -0.10420128 -0.25391203 -0.499827 -0.5874472
0.17017165 -0.21247798 0.55194986 0.10869898 0.1320083 -0.39993533 0.5480258 -0.0224538
-0.510117 -0.36903542 0.45311168 -0.8794406 -0.069463424 0.32014474 -0.48888904 0.01689055
0.7994899 -0.04348106 -0.0336735 -1.371426 0.18418947 -1.6838845 0.14566998 0.13046266
0.61553967 -0.12210465 -0.061120868 0.79791737 -0.2672746 0.269435 -0.76472396 -0.26781714
0.0132332435 0.54749143 -0.33556387 -0.102385886 1.1993699 -0.3063151 0.5361476 -0.76053476
0.26868364 -0.20205556 -0.40794596 -0.9578322 -0.7562482 0.20866342 0.7398542 -0.9668469
1.032399 0.5823798 -0.9151079 0.39781955 -0.08371988 -0.2642163 -0.06574647 -0.40570262
-5.047519 -1.055796 0.5840021 -0.46641994 0.6414869 0.69877636 0.108241454 -0.43360448
-0.29920086 -1.0885425 0.13651153 -0.5153422 0.0190997 0.3920354 -2.0205615 0.011207795
0.12773022 0.5061404 -0.15734448 -0.8952773 0.21086013 -0.2451308 -0.08903722 -0.29211217
0.0171823 0.042679008 -0.025968015 -4.5892844 0.0351576 0.16004859 -0.5027845 0.027761549
0.06291316 0.78684616 0.27120033 0.11394611 -0.08187465 -0.6651918 0.3782837 -0.107847005
-0.0655657 0.0216895 -0.11126318 0.45760527 0.05125904 -0.41265735 -0.26385874 -0.15160751
-0.0726589 0.20023406 -0.13635221 0.12976502 -0.30247232 0.043062653 0.66216975 0.1515673
-0.20270865 -0.22055306 -2.6314511 -1.2662324 -0.7321718 -12.814315 -0.0039159 0.07321369
-0.02475853 0.19802827 -0.5713802 0.4510276 0.19822554 0.26181844 -0.2875809 0.37348524
0.0337295 -0.0340015 -0.0314579 -0.00565022 -0.0493759 -0.0505782 -0.00367754 3.19313e-05
-0.0132984 -0.0262461 -0.00122566 -0.0285718 -0.0121681 -0.0467381 0.0303685 -0.00362144
0.0258628 -0.044458 -0.0234908 0.0189105 0.0108195 -0.0378711 0.0167422 -0.0571649
-0.0205167 -0.0340625 -0.02099 -0.0728591 0.0322863 0.0240851 -0.0285731 0.00857452
0.00266263 -0.0335842 0.0219553 -0.00410158 -0.0170966 -0.0183018 -0.0168437 -0.00051896
-0.000680549 0.00876925 0.0370695 0.000512794 -0.0030528 -0.00677902 -0.00362435 -0.00779121
-0.00473134 -0.023749 0.1391954 0.03443349 -0.041666448 0.10915794 -0.08048411 0.1194771
00000000: e097 3dbe 22dd c3be a28c 153a 1841 22be
00000010: 1da6 32be 8774 11c0 d612 2ebf 2743 d33e
00000020: 0995 2ec0 1dad 6d3e b58e 3cbe dc38 353f
00000030: 26a8 d93e 36aa 713f 3be7 ddbe e9be c6bf
00000040: f4e8 ce3d 2716 953f 7d70 f4be a192 c0bd
00000050: 8e58 8b3f 1eb8 ccbf 9d61 eabe 3ca4 033f
00000060: 9d63 8c3f d43a a7be 494e 673f 52f7 953e
00000070: caaf e33d 122c 2a3f 3a06 80be 7cc5 5fbe
00000080: 0af5 993d fe69 603e c496 2dbf f58b 343e
00000090: 2138 cd3b ac71 893c 42c6 b83f b5eb 19be
000000a0: b7b0 933c b96e 2e3f 30fd b2bf 77f2 adbf
000000b0: 9dce 403f 7c8c 9ebf 7d11 283e 6518 01be
000000c0: accd bbbe d905 003f 828c 34be dc4e 0e3e
000000d0: be98 413f 204c 383f 1a40 91bd 4fe2 f23e
000000e0: defb bf3d 7c3c 503e 7f4a 8abf afbc ac3e
000000f0: 5a26 69be 2a1d 873d eba1 e1bd 4cee ac3f
00000100: 4781 2dbd 1bf9 3ebf 44ff 87bd cf35 92bf
00000110: 7b67 d5bd c200 82be 53e9 ffbe f162 16bf
00000120: 7a41 2e3e d493 59be 964c 0d3f 929d de3d
00000130: 2f2d 073e 53c4 ccbe 6b4b 0c3f 08f1 b7bc
00000140: 0797 02bf 36f2 bcbe 41fe e73e 0523 61bf
00000150: d742 8ebd 03ea a33e aa4f fabe 0d5e 8a3c
00000160: 5fab 4c3f 3219 32bd 39ed 09bd e38a afbf
00000170: 2a9c 3c3e 8789 d7bf 832a 153e 0198 053e
00000180: 0294 1d3f 0112 fabd e059 7abd 5044 4c3f
00000190: 37d8 88be 62f3 893e f3c4 43bf 541f 89be
000001a0: 3fd0 583c 6628 0c3f 07cf abbe b1af d1bd
000001b0: f484 993f 55d5 9cbe f840 093f 68b2 42bf
000001c0: e790 893e a7e7 4ebe 4bde d0be 7e34 75bf
000001d0: 7b99 41bf ddab 553e 1667 3d3f 4783 77bf
000001e0: a725 843f d816 153f 8344 6abf 01af cb3e
000001f0: 5475 abbd 5c47 87be 16a6 86bd 41b8 cfbe
00000200: 4785 a1c0 5324 87bf 2981 153f 98ce eebe
00000210: 7c38 243f 02e3 323f b2ad dd3d 6801 debe
00000220: db30 99be 5c55 8bbf aec9 0b3e 77ed 03bf
00000230: f976 9c3c ddb8 c83e e150 01c0 e6a0 373c
00000240: b6cb 023e 6b92 013f e91e 21be e530 65bf
00000250: b8eb 573e 9203 7bbe 2559 b6bd ba8f 95be
00000260: e5c1 8c3c 2fd0 2e3d e0ba d4bc 6bdb 92c0
00000270: 6a01 103d c7e3 233e 7cb6 00bf 306c e33c
00000280: 9dd8 803d c06e 493f c5da 8a3e 945c e93d
00000290: e6ad a7bd 034a 2abf 67ae c13e e4de dcbd
000002a0: 4f47 86bd 2eae b13c f3dd e3bd 3d4b ea3e
000002b0: 00f5 513d d347 d3be 7e18 87be 003f 1bbe
000002c0: 30ce 94bd 280a 4d3e ea9f 0bbe 1fe1 043e
000002d0: a7dd 9abe 7762 303d f583 293f 7534 1b3e
000002e0: db92 4fbe a9d8 61be b269 28c0 e713 a2bf
000002f0: 9c6f 3bbf 6f07 4dc1 f350 80bb 0ff1 953d
00000300: 67d2 cabc ecc7 4a3e f945 12bf 17ed e63e
00000310: a3fb 4a3e 110d 863e ce3d 93be 7539 bf3e
00000320: f227 0a3d 2845 0bbd 00da 00bd 7b25 b9bb
00000330: 623e 4abd 162b 4fbd e202 71bb f9ed 0538
00000340: 88e1 59bc 1002 d7bc 53a6 a0ba 680f eabc
00000350: b65c 47bc 7370 3fbd 5cc7 f83c ae55 6dbb
00000360: 39de d33c 9819 36bd c76f c0bc 31ea 9a3c
00000370: 4644 313c ba1e 1bbd f026 893c be25 6abd
00000380: a312 a8bc 1f85 0bbd 38f3 abbc 2737 95bd
00000390: a43e 043d 1e4e c53c 2212 eabc 257c 0c3c
000003a0: 857f 2e3b 968f 09bd 9adb b33c 8c66 86bb
000003b0: 2b0e 8cbc a8ed 95bc cdfb 89bc d10a 08ba
000003c0: df66 32ba e6ac 0f3c 30d6 173d 066d 063a
000003d0: 7c11 48bb 8b22 debb 8186 6dbb 684d ffbb
000003e0: 5b09 9bbb 438d c2bc 3d89 0e3e 220a 0d3d
000003f0: 70aa 2abd 338e df3d dad4 a4bd 69b0 f43d

MatMul_H4.bias f4 [50]
-3.1378858 -1.547165 -0.7256221 0.4075957 -0.0181324 0.78225964 0.11203823 -0.2691766
-2.7946367 -0.4851588 -3.4038308 1.5292518 0.92943233 -2.4909873 -0.09278228 0.33949742
-0.5875449 -0.12981491 -0.19778927 -0.38068378 0.50996906 0.19117783 0.07200842 -1.5320626
1.5856733 -1.4341097 0.7183626 0.17841522 -0.6693586 -0.10242219 -0.17760623 -0.7720045
-0.31021157 -0.480421 0.10918536 0.032368533 1.6305254 -0.3503154 -0.9526843 -2.0099714
0.49108005 -1.274454 0.4784104 -0.0052107447 0.2665153 1.6960038 1.683448 0.5488244
-0.54123986 0.67908573
00000000: 1fd3 48c0 8109 c6bf 5fc2 39bf 62b0 d03e
00000010: 668a 94bc 2b42 483f 4d74 e53d 84d1 89be
00000020: 54db 32c0 bc66 f8be 5dd8 59c0 86be c33f
00000030: 47ef 6d3f 566c 1fc0 a304 bebd 9bd2 ad3e
00000040: 5869 16bf 33ee 04be 4589 4abe fce8 c2be
00000050: 558d 023f 1fc4 433e 2779 933d a11a c4bf
00000060: 58f7 ca3f e890 b7bf 9de6 373f 7bb2 363e
00000070: 165b 2bbf bac2 d1bd 68de 35be 16a2 45bf
00000080: 0dd4 9ebe bef9 f5be 939c df3d de94 043d
00000090: 0eb5 d03f 8a5c b3be 1ee3 73bf 5fa3 00c0
000000a0: d86e fb3e 4f21 a3bf 35f2 f43e e5be aabb
000000b0: b274 883e a716 d93f 397b d73f c27f 0c3f
000000c0: b28e 0abf 90d8 2d3f

MatMul_H5.weight f4 [50, 50]
-0.57557154 -3.35723 0.06866109 0.0306554 -0.00979499 -0.38950032 -0.0013373847 0.052773446
0.056612127 -0.37759843 0.55524564 -0.6917233 -0.16975145 -0.08672428 -0.16656442 -0.36768487
2.1385624 0.6352146 0.7400103 -0.36899894 0.7698839 0.30625063 -0.33494058 0.04922419
0.18419796 -0.5303437 -0.52249706 0.04158113 0.6614663 0.21415502 -0.6547772 -0.352829
0.45240796 -0.3380157 -0.6891183 -0.4812918 -0.29297918 0.6113548 -0.4193876 -0.9748037
0.6467651 0.5023294 -0.78787345 -0.62919134 -0.32754374 -1.4755893 0.11091908 0.56849843
-0.10020327 0.40317085 -0.550452 -2.1960816 0.6997317 2.04367 0.0100986 0.20910849
-0.35022655 -0.31179762 -0.24778688 0.0557621 0.35854712 -3.39846 -0.06158045 -0.77535
0.245746 2.332035 -1.2820323 0.23017141 -1.12733 -1.6468443 2.9892714 0.18922362
-12.206728 2.3141057 0.31868902 0.14410122 -0.20659667 -2.7368438 1.7013988 -0.3431791
0.7116447 -9.14638 -0.09705665 0.7818115 -1.02225 -0.47073182 0.188048 0.9473838
1.50922 1.5487248 -0.7423992 -0.8307151 -0.23658127 -0.36899462 0.9503024 -0.0645037
-0.72873545 1.4737265 -0.145503 -0.081670456 -0.05797192 -2.106314 -0.15121153 -0.14995234
0.00606697 0.061396003 -0.052573368 0.041772664 0.18915144 -0.06329389 0.114796765 -0.6216911
0.035004746 0.121441595 0.061334725 0.0006606332 3.2333124 0.408775 0.4699355 -0.34143275
0.29298067 0.14245328 -0.28904575 0.25401315 0.14091305 0.12349605 -0.6375086 -0.09373527
0.025690977 0.3209109 -0.25718233 -0.18748 0.11956566 -0.11746688 -0.39068028 -0.34909955
-0.36319518 -0.39326784 -0.32669434 -0.106155775 -0.16865945 0.47670162 -0.094150305 0.0012150826
0.18596523 -0.52219534 0.046528824 0.18867917 -0.8637793 0.4236249 -0.0011917602 0.043150034
0.09030658 0.17447697 -0.0447212 0.357677 0.22798137 0.197672 0.18574633 0.0103451805
-0.12900595 0.14477496 0.12742643 -0.14762959 -0.1446901 -0.007461145 2.5998263 0.121295065
-0.006771238 0.00045573496 -0.5808771 -0.08878182 -0.4964445 -0.01745028 -0.037182935 -0.21218579
0.42626372 0.24842592 -0.072721384 0.037573617 -0.0062497514 -0.038607698 -0.099733636 -0.09060655
-0.11849001 0.1006637 -0.08726933 0.62130636 -0.005821696 -0.010116748 0.08722771 -0.0974832
0.16996114 0.05347994 -0.3093297 0.051214784 0.089093305 0.1895248 0.23580393 0.03183003
0.4298198 -1.9341909 1.1407558 0.08848214 -0.0140875 0.5408051 -0.44327572 -0.5268079
-0.26229072 -0.568087 -0.17332697 -0.97410524 0.30009666 -2.3989766 -1.7475479 -0.8279545
-0.04982332 0.97206837 0.53198594 -0.039468635 1.1168567 -0.351373 1.1365553 -1.2902621
-1.1278725 -0.6890258 -0.49781376 -0.16393815 1.4465542 0.5308053 -0.44020167 -0.384209
0.026223302 -4.925098 0.83061814 0.19925426 0.48532316 0.3338302 -0.9164078 0.3318402
0.27947092 0.30140156 0.07327665 0.20616272 -0.26925543 -1.3175998 -0.32836884 0.54306585
-1.9864696 -0.1463314 -0.13800941 0.13608147 -0.03426868 -0.09219573 0.015269 -0.14026135
00000000: a858 13bf dbdc 56c0 309e 8c3d 0921 fb3c
00000010: 2a7b 20bc 966c c7be 2f4b afba f828 583d
00000020: 1ee2 673d 9554 c1be 9424 0e3f c714 31bf
00000030: 53d3 2dbe 809c b1bd dd8f 2abe 3141 bcbe
00000040: 35de 0840 6d9d 223f 5171 3d3f 6eed bcbe
00000050: 1c17 453f e2cc 9c3e 557d abbe 4e9f 493d
00000060: 649e 3c3e 9bc4 07bf 5ec2 05bf fa50 2a3d
00000070: db55 293f 744b 5b3e 7b9f 27bf 01a6 b4be
00000080: 04a2 e73e 6510 adbe 0f6a 30bf e16b f6be
00000090: 5e01 96be c081 1c3f f9b9 d6be bc8c 79bf
000000a0: 6692 253f a998 003f 13b2 49bf af12 21bf
000000b0: d0b3 a7be 1ce0 bcbf 8b29 e33d 1d89 113f
000000c0: 5f37 cdbd 696c ce3e 6cea 0cbf 9a8c 0cc0
000000d0: 9e21 333f 7dcb 0240 9974 253c 8920 563e
000000e0: e550 b3be f0a3 9fbe d8bb 7dbe cd66 643d
000000f0: 7d93 b73e 5e80 59c0 c83b 7cbd 567d 46bf
00000100: d7a4 7b3e 1040 1540 a219 a4bf 0eb2 6b3e
00000110: 594c 90bf cbcb d2bf 3950 3f40 d6c3 413e
00000120: c24e 43c1 4f1a 1440 352b a33e 458f 133e
00000130: 148e 53be 7328 2fc0 70c7 d93f 2cb5 afbe
00000140: 592e 363f 9357 12c1 a3c5 c6bd cc24 483f
00000150: 17d9 82bf c303 f1be a88f 403e bf87 723f
00000160: 1f2e c13f 9d3c c63f e00d 3ebf bfa9 54bf
00000170: 5c42 72be ddec bcbe 0547 733f 841a 84bd
00000180: 688e 3abf 12a3 bc3f bdfe 14be d742 a7bd
00000190: f773 6dbd d9cd 06c0 32d7 1abe 1b8d 19be
000001a0: 6fcd c63b 607a 7b3d 2c57 57bd d019 2b3d
000001b0: eab0 413e 3aa0 81bd 911a eb3d 2627 1fbf
000001c0: 2361 0f3d 5fb6 f83d 1f3a 7b3d 582e 2d3a
000001d0: 97ee 4e40 f54a d13e 639b f03e 46d0 aebe
000001e0: 9001 963e 46df 113e cefd 93be 030e 823e
000001f0: 834b 103e 7feb fc3d c333 23bf 47f8 bfbd
00000200: e275 d23c 6f4e a43e 67ad 83be c2fa 3fbe
00000210: d7de f43d 7a92 f0bd 3f07 c8be 2dbd b2be
00000220: b8f4 b9be 675a c9be 7b44 a7be 3368 d9bd
00000230: 10b5 2cbe 3c12 f43e e0d1 c0bd 6843 9f3a
00000240: ab6d 3e3e 98ae 05bf 0295 3e3d 1d35 413e
00000250: a420 5dbf 5de5 d83e d634 9cba 17be 303d
00000260: a8f2 b83d 17aa 323e 942d 37bd 7121 b73e
00000270: f373 693e 876a 4a3e 4934 3e3e d57e 293c
00000280: 231a 04be e33f 143e 137c 023e 362c 17be
00000290: a429 14be 9f7c f4bb 8e63 2640 8c69 f83d
000002a0: 43e1 ddbb b6ef ee39 5db4 14bf 3ed3 b5bd
000002b0: f92d febe e4f3 8ebc 224d 18bd 3b47 59be
000002c0: 3d3f da3e 5d63 7e3e f3ee 94bd cbe6 193d
000002d0: b7ca ccbb 1b23 1ebd 2641 ccbd ed8f b9bd
000002e0: e4aa f2bd c528 ce3d 43ba b2bd ef0d 1f3f
000002f0: edc3 bebb b7c0 25bc 71a4 b23d 46a5 c7bd
00000300: 4b0a 2e3e c80d 5b3d 7660 9ebe 98c6 513d
00000310: 8d76 b63d ca12 423e 9676 713e 3560 023d
00000320: 5711 dc3e 9193 f7bf 4904 923f 2036 b53d
00000330: 42cf 66bc 3472 0a3f 09f5 e2be e2dc 06bf
00000340: f84a 86be 266e 11bf a07c 31be f65e 79bf
00000350: 45a6 993e d588 19c0 a6af dfbf d3f4 53bf
00000360: 8a13 4cbd 79d9 783f 3b30 083f dda9 21bd
00000370: 29f5 8e3f 29e7 b3be a57a 913f 4f27 a5bf
00000380: 205e 90bf ff63 30bf 72e1 febe 67df 27be
00000390: b028 b93f dbe2 073f 1d62 e1be 0bb7 c4be
000003a0: 40d2 d63c 679a 9dc0 64a3 543f 4f09 4c3e
000003b0: 477c f83e cbeb aa3e b499 6abf f5e6 a93e
000003c0: d016 8f3e 4e51 9a3e 1112 963d 521c 533e
000003d0: d9db 89be 1ca7 a8bf f61f a8be 5d06 0b3f
000003e0: a344 febf e6d7 15be 5752 0dbe f158 0b3e
000003f0: 515d 0cbd 1dd1 bcbd d42a 7a3c aca0 0fbe

MatMul_H5.bias f4 [50]
-0.43183607 -1.6652782 -0.24223906 -0.1206853 -1.8115456 0.14017767 0.18094991 0.12063296
-2.1871116 -4.4788795 -0.07258359 -1.5132371 -3.637235 0.91853845 -0.3093847 -1.3183267
0.50112134 0.055887688 -0.12489638 -0.44083115 -2.0634897 -0.43745866 -5.202023 -0.38217404
0.16565935 0.15785168 0.22116098 -0.71623874 -0.30351284 0.133269 0.1395019 0.00063046755
-5.766866 -1.7227892 1.6552838 -0.43048748 0.2003467 0.447702 -0.5657375 -1.1979407
0.21664855 -0.861147 -0.09100404 0.28903735 0.37962455 1.2746279 0.5531966 -0.13829665
0.09471143 -0.07486501
00000000: 9e19 ddbe d627 d5bf 840d 78be db29 f7bd
00000010: bae0 e7bf bc8a 0f3e ef4a 393e 6a0e f73d
00000020: a3f9 0bc0 fb52 8fc0 b5a6 94bd c1b1 c1bf
00000030: 75c8 68c0 5625 6b3f ac67 9ebe eebe a8bf
00000040: 7d49 003f 7dea 643d acc9 ffbd 9fb4 e1be
00000050: 3710 04c0 95fa dfbe f976 a6c0 51ac c3be
00000060: 9ba2 293e dfa3 213e 0678 623e 6c5b 37bf
00000070: 0966 9bbe ab77 083e 96d9 0e3e f645 253a
00000080: 2b8a b8c0 5b84 dcbf 57e0 d33f db68 dcbe
00000090: af27 4d3e 3239 e53e 2cd4 10bf 1f56 99bf
000000a0: 1ed9 5d3e 2174 5cbf 5360 babd b4fc 933e
000000b0: 265e c23e 0227 a33f 4b9e 0d3f a39d 0dbe
000000c0: 11f8 c13d d452 99bd

MatMul_y_out.weight f4 [5, 50]
0.11531594 0.04436841 0.20686918 0.54873806 0.29121527 0.27806658 0.09808166 0.09228418
0.04214782 0.15207686 0.22144125 0.20812543 0.270434 -0.0056797075 0.051505424 0.29213235
0.33893427 0.34190187 0.012214991 0.060979478 0.022634542 0.52353287 0.048750665 0.105960734
0.13682264 0.00019500815 0.4291459 0.37582526 0.43922725 0.1522 0.435187 0.32162026
0.028407123 0.36195922 0.1413218 0.028265104 0.49356303 0.09988458 0.09783519 0.45262864
0.36824667 0.0907424 0.32170257 0.48179772 0.37257844 0.007232638 0.23149423 0.12587084
0.38691002 0.4977694 0.105414756 0.05760845 0.21020153 0.54870045 0.27678454 0.29264608
0.09759212 0.12085746 0.04042809 0.152344 0.22255938 0.20080388 0.27155885 0.003517643
0.055543005 0.29267368 0.3512372 0.34878704 0.015954178 0.051133502 0.04374065 0.5288464
0.04745123 0.10206917 0.1436822 0.01319978 0.42203268 0.37857747 0.40639606 0.188144
0.45783338 0.32421273 0.02609488 0.3606421 0.14880855 0.027162934 0.43921396 0.101667315
0.11914254 0.46090412 0.36253917 0.106023 0.31776172 0.50832033 0.35627705 0.0012718374
0.21666662 0.11962026 0.40373757 0.5203198 0.11979231 0.03901098 0.21206622 0.5533574
0.29985026 0.28930065 0.08668504 0.077340595 0.04225788 0.15695998 0.24996404 0.20560482
0.2633547 -0.010577672 0.04349253 0.2988059 0.34585485 0.3376271 0.0142736845 0.06740755
-0.008674696 0.5266882 0.05493525 0.14629602 0.1419907 0.014538446 0.43440574 0.37485388
0.44679394 0.166869 0.44920507 0.3245787 0.03285037 0.35979927 0.14246899 0.01988965
0.44600457 0.10422805 0.07462549 0.4562306 0.36266142 0.111618 0.32253125 0.4646332
0.3855326 0.015644187 0.21088488 0.12869129 0.3936139 0.49633414 0.096333236 -0.14413433
0.034656383 -0.013297261 -0.02810087 0.13228533 0.1745477 -0.062845975 0.2757951 -0.1852078
-0.26795888 0.041516785 0.3348064 0.02760857 0.30187663 -0.122725405 0.15292853 0.0081187785
-0.025071293 -0.20528947 0.031033851 -0.010770238 -0.029457157 0.16827163 0.2490159 0.014839253
-0.03419973 0.0077558304 -0.121529795 0.118055 -0.054793783 0.003928075 0.06434452 0.076301165
0.29909503 9.597832e-05 -0.0014807071 0.018904664 0.18511415 -0.011628013 -0.02053853 0.106145
0.041310955 -0.106557764 -0.018511062 -0.020340612 -0.044455394 -0.13186966 0.0069336616 -0.02560381
-0.105644934 0.15876813 -0.047649484 0.036139607 0.03874602 -0.11992608 -0.18742055 0.07051991
-0.2071467 0.19209497 0.24548417 -0.06935646 -0.3188669 -0.036192074 -0.30560392 0.08170208
-0.10284357 -0.01367607 -0.025271332 0.16824503 0.015631242 0.03083754 0.06354785 -0.10779553
-0.16799003 0.011139815 0.03545426 0.028910082 0.048595566 0.109347 -0.016425937 -0.0042673745
-0.12983987 0.0012194229 -0.320112 -0.029519582 -0.08007591 -0.04215757 -0.24073507 0.068411514
0.053069666 0.0802269 -0.00942196 0.13061947 0.011979098 0.002645604 0.06394706 0.12660071
-0.06452261 0.043793924
00000000: c32a ec3d a6bb 353d 84d5 533e 197a 0c3f
00000010: 2b1a 953e be5e 8e3e 0adf c83d 7dff bc3d
00000020: 31a3 2c3d 09ba 1b3e 7fc1 623e d51e 553e
00000030: 5376 8a3e d71c babb 5af7 523d 5f92 953e
00000040: cb88 ad3e c30d af3e 6321 483c 9ec5 793d
00000050: 136c b93c 4006 063f c7ae 473d f101 d93d
00000060: 3c1b 0c3e 1a7b 4c39 03b9 db3e 2b6c c03e
00000070: 65e2 e03e 51da 1b3e d5d0 de3e 69ab a43e
00000080: 0eb6 e83c b852 b93e a9b6 103e 388c e73c
00000090: 4bb4 fc3e 4990 cc3d d15d c83d f1be e73e
000000a0: d48a bc3e 27d7 b93d 33b6 a43e 31ae f63e
000000b0: 9ac2 be3e c4ff ec3b d30c 6d3e 49e4 003e
000000c0: 1219 c63e a1db fe3e b1e3 d73d d7f6 6b3d
000000d0: 123f 573e a277 0c3f b4b6 8d3e b5d5 953e
000000e0: 61de c73d 1e84 f73d ed97 253d 1100 1c3e
000000f0: 9be6 633e 889f 4d3e c309 8b3e 4288 663b
00000100: 1081 633d 53d9 953e 5dd5 b33e 3794 b23e
00000110: 56b2 823c 5d71 513d 6529 333d 7a62 073f
00000120: 395c 423d a409 d13d 6d21 133e e443 583c
00000130: ab14 d83e e8d4 c13e 2513 d03e d2a8 403e
00000140: 2369 ea3e 36ff a53e eec4 d53c 15a6 b83e
00000150: 4561 183e cd84 de3c a7e0 e03e f436 d03d
00000160: 0101 f43d a0fb eb3e bc9e b93e 9622 d93d
00000170: aab1 a23e 4821 023f f269 b63e c8b3 a63a
00000180: dbdd 5d3e 78fb f43d b1b6 ce3e ae33 053f
00000190: ac55 f53d fac9 1f3d e327 593e d5a8 0d3f
000001a0: f985 993e 371f 943e ed87 b13d bf64 9e3d
000001b0: 9916 2d3d 1eba 203e 93f6 7f3e 128a 523e
000001c0: 6dd6 863e f94d 2dbc 3925 323d 16fd 983e
000001d0: e313 b13e 76dd ac3e 2cdc 693c f80c 8a3d
000001e0: 5020 0ebc 0ad5 063f c903 613d a0ce 153e
000001f0: 0366 113e aa32 6e3c 6e6a de3e d9ec bf3e
00000200: 2dc2 e43e b5df 2a3e 35fe e53e 2e2f a63e
00000210: 1c8e 063d 9c37 b83e 64e3 113e 9fef a23c
00000220: b65a e43e 8475 d53d 40d5 983d 0f97 e93e
00000230: c2ae b93e fa97 e43d d122 a53e 67e4 ed3e
00000240: 8764 c53e 3d28 803c 35f2 573e a6c7 033e
00000250: c387 c93e 821f fe3e 5c4a c53d f397 13be
00000260: daf3 0d3d c1dc 59bc cc33 e6bc ce75 073e
00000270: a2bc 323e 64b5 80bd 0435 8d3e 1da7 3dbe
00000280: e831 89be 810d 2a3d bf6b ab3e 5e2b e23c
00000290: 938f 9a3e 7557 fbbd 4c99 1c3e a004 053c
000002a0: 5062 cdbc 6737 52be b43a fe3c a775 30bc
000002b0: 2350 f1bc 664f 2c3e 06fe 7e3e 5720 733c
000002c0: 0415 0cbd 9f24 fe3b 9de4 f8bd d2c6 f13d
000002d0: 726f 60bd 15b7 803b 0fc7 833d c943 9c3d
000002e0: fc22 993e f847 c938 4914 c2ba f4dd 9a3c
000002f0: 908e 3d3e 6c83 3ebc 6b40 a8bc 8d62 d93d
00000300: ad35 293d f53a dabd 83a4 97bc 5ba1 a6bc
00000310: dc16 36bd d708 07be c533 e33b 15bf d1bc
00000320: 5f5c d8bd 1d94 223e 1b2c 43bd 2007 143d
00000330: 26b4 1e3d ce9b f5bd 2ceb 3fbe be6c 903d
00000340: 441e 54be 8bb4 443e 3460 7b3e c20a 8ebd
00000350: 8642 a3be 243e 14bd 1e78 9cbe 6c53 a73d
00000360: a69f d2bd 9811 60bc d305 cfbc 6d48 2c3e
00000370: 170d 803c 029f fc3c 6025 823d e7c3 dcbd
00000380: 9405 2cbe c583 363c 7c38 113d d6d4 ec3c
00000390: 250c 473d 52f1 df3d b08f 86bc 55d5 8bbb
000003a0: bef4 04be 0bd5 9f3a b8e5 a3be 0dd3 f1bc
000003b0: d7fe a3bd 6bad 2cbd 4183 76be 561b 8c3d
000003c0: 945f 593d 004e a43d 915e 1abc 1cc1 053e
000003d0: fb43 443c df61 2d3b adf6 823d 9ea3 013e
000003e0: 6e24 84bd 4261 333d

MatMul_y_out.bias f4 [5]
0.23114568 0.23388211 0.23361744 -0.06534302 -0.011292629
00000000: 74b1 6c3e cb7e 6f3e 6939 6f3e 90d2 85bd
00000010: b804 39bc
